saved_model_schema_version: 1
meta_graphs {
  meta_info_def {
    stripped_op_list {
      op {
        name: "Const"
        output_arg {
          name: "output"
          type_attr: "dtype"
        }
        attr {
          name: "value"
          type: "tensor"
        }
        attr {
          name: "dtype"
          type: "type"
        }
      }
      op {
        name: "NoOp"
      }
      op {
        name: "PartitionedCall"
        input_arg {
          name: "args"
          type_list_attr: "Tin"
        }
        output_arg {
          name: "output"
          type_list_attr: "Tout"
        }
        attr {
          name: "Tin"
          type: "list(type)"
          has_minimum: true
        }
        attr {
          name: "Tout"
          type: "list(type)"
          has_minimum: true
        }
        attr {
          name: "f"
          type: "func"
        }
        attr {
          name: "config"
          type: "string"
          default_value {
            s: ""
          }
        }
        attr {
          name: "config_proto"
          type: "string"
          default_value {
            s: ""
          }
        }
        attr {
          name: "executor_type"
          type: "string"
          default_value {
            s: ""
          }
        }
      }
      op {
        name: "Placeholder"
        output_arg {
          name: "output"
          type_attr: "dtype"
        }
        attr {
          name: "dtype"
          type: "type"
        }
        attr {
          name: "shape"
          type: "shape"
          default_value {
            shape {
              unknown_rank: true
            }
          }
        }
      }
      op {
        name: "ReadVariableOp"
        input_arg {
          name: "resource"
          type: DT_RESOURCE
        }
        output_arg {
          name: "value"
          type_attr: "dtype"
        }
        attr {
          name: "dtype"
          type: "type"
        }
        is_stateful: true
      }
      op {
        name: "StatefulPartitionedCall"
        input_arg {
          name: "args"
          type_list_attr: "Tin"
        }
        output_arg {
          name: "output"
          type_list_attr: "Tout"
        }
        attr {
          name: "Tin"
          type: "list(type)"
          has_minimum: true
        }
        attr {
          name: "Tout"
          type: "list(type)"
          has_minimum: true
        }
        attr {
          name: "f"
          type: "func"
        }
        attr {
          name: "config"
          type: "string"
          default_value {
            s: ""
          }
        }
        attr {
          name: "config_proto"
          type: "string"
          default_value {
            s: ""
          }
        }
        attr {
          name: "executor_type"
          type: "string"
          default_value {
            s: ""
          }
        }
        is_stateful: true
      }
      op {
        name: "VarHandleOp"
        output_arg {
          name: "resource"
          type: DT_RESOURCE
        }
        attr {
          name: "container"
          type: "string"
          default_value {
            s: ""
          }
        }
        attr {
          name: "shared_name"
          type: "string"
          default_value {
            s: ""
          }
        }
        attr {
          name: "dtype"
          type: "type"
        }
        attr {
          name: "shape"
          type: "shape"
        }
        attr {
          name: "allowed_devices"
          type: "list(string)"
          default_value {
            list {
            }
          }
        }
        is_stateful: true
      }
    }
    tags: "serve"
    tensorflow_version: "1.15.0"
    tensorflow_git_version: "unknown"
    stripped_default_attrs: true
  }
  graph_def {
    node {
      name: "train_step"
      op: "VarHandleOp"
      attr {
        key: "_output_shapes"
        value {
          list {
            shape {
            }
          }
        }
      }
      attr {
        key: "dtype"
        value {
          type: DT_INT64
        }
      }
      attr {
        key: "shape"
        value {
          shape {
          }
        }
      }
      attr {
        key: "shared_name"
        value {
          s: "train_step"
        }
      }
    }
    node {
      name: "train_step/Read/ReadVariableOp"
      op: "ReadVariableOp"
      input: "train_step"
      attr {
        key: "_output_shapes"
        value {
          list {
            shape {
            }
          }
        }
      }
      attr {
        key: "dtype"
        value {
          type: DT_INT64
        }
      }
    }
    node {
      name: "QNetwork/EncodingNetwork/dense/kernel"
      op: "VarHandleOp"
      attr {
        key: "_output_shapes"
        value {
          list {
            shape {
            }
          }
        }
      }
      attr {
        key: "dtype"
        value {
          type: DT_FLOAT
        }
      }
      attr {
        key: "shape"
        value {
          shape {
            dim {
              size: 34
            }
            dim {
              size: 100
            }
          }
        }
      }
      attr {
        key: "shared_name"
        value {
          s: "QNetwork/EncodingNetwork/dense/kernel"
        }
      }
    }
    node {
      name: "QNetwork/EncodingNetwork/dense/kernel/Read/ReadVariableOp"
      op: "ReadVariableOp"
      input: "QNetwork/EncodingNetwork/dense/kernel"
      attr {
        key: "_output_shapes"
        value {
          list {
            shape {
              dim {
                size: 34
              }
              dim {
                size: 100
              }
            }
          }
        }
      }
      attr {
        key: "dtype"
        value {
          type: DT_FLOAT
        }
      }
    }
    node {
      name: "QNetwork/EncodingNetwork/dense/bias"
      op: "VarHandleOp"
      attr {
        key: "_output_shapes"
        value {
          list {
            shape {
            }
          }
        }
      }
      attr {
        key: "dtype"
        value {
          type: DT_FLOAT
        }
      }
      attr {
        key: "shape"
        value {
          shape {
            dim {
              size: 100
            }
          }
        }
      }
      attr {
        key: "shared_name"
        value {
          s: "QNetwork/EncodingNetwork/dense/bias"
        }
      }
    }
    node {
      name: "QNetwork/EncodingNetwork/dense/bias/Read/ReadVariableOp"
      op: "ReadVariableOp"
      input: "QNetwork/EncodingNetwork/dense/bias"
      attr {
        key: "_output_shapes"
        value {
          list {
            shape {
              dim {
                size: 100
              }
            }
          }
        }
      }
      attr {
        key: "dtype"
        value {
          type: DT_FLOAT
        }
      }
    }
    node {
      name: "QNetwork/EncodingNetwork/dense_1/kernel"
      op: "VarHandleOp"
      attr {
        key: "_output_shapes"
        value {
          list {
            shape {
            }
          }
        }
      }
      attr {
        key: "dtype"
        value {
          type: DT_FLOAT
        }
      }
      attr {
        key: "shape"
        value {
          shape {
            dim {
              size: 100
            }
            dim {
              size: 40
            }
          }
        }
      }
      attr {
        key: "shared_name"
        value {
          s: "QNetwork/EncodingNetwork/dense_1/kernel"
        }
      }
    }
    node {
      name: "QNetwork/EncodingNetwork/dense_1/kernel/Read/ReadVariableOp"
      op: "ReadVariableOp"
      input: "QNetwork/EncodingNetwork/dense_1/kernel"
      attr {
        key: "_output_shapes"
        value {
          list {
            shape {
              dim {
                size: 100
              }
              dim {
                size: 40
              }
            }
          }
        }
      }
      attr {
        key: "dtype"
        value {
          type: DT_FLOAT
        }
      }
    }
    node {
      name: "QNetwork/EncodingNetwork/dense_1/bias"
      op: "VarHandleOp"
      attr {
        key: "_output_shapes"
        value {
          list {
            shape {
            }
          }
        }
      }
      attr {
        key: "dtype"
        value {
          type: DT_FLOAT
        }
      }
      attr {
        key: "shape"
        value {
          shape {
            dim {
              size: 40
            }
          }
        }
      }
      attr {
        key: "shared_name"
        value {
          s: "QNetwork/EncodingNetwork/dense_1/bias"
        }
      }
    }
    node {
      name: "QNetwork/EncodingNetwork/dense_1/bias/Read/ReadVariableOp"
      op: "ReadVariableOp"
      input: "QNetwork/EncodingNetwork/dense_1/bias"
      attr {
        key: "_output_shapes"
        value {
          list {
            shape {
              dim {
                size: 40
              }
            }
          }
        }
      }
      attr {
        key: "dtype"
        value {
          type: DT_FLOAT
        }
      }
    }
    node {
      name: "QNetwork/dense_2/kernel"
      op: "VarHandleOp"
      attr {
        key: "_output_shapes"
        value {
          list {
            shape {
            }
          }
        }
      }
      attr {
        key: "dtype"
        value {
          type: DT_FLOAT
        }
      }
      attr {
        key: "shape"
        value {
          shape {
            dim {
              size: 40
            }
            dim {
              size: 2
            }
          }
        }
      }
      attr {
        key: "shared_name"
        value {
          s: "QNetwork/dense_2/kernel"
        }
      }
    }
    node {
      name: "QNetwork/dense_2/kernel/Read/ReadVariableOp"
      op: "ReadVariableOp"
      input: "QNetwork/dense_2/kernel"
      attr {
        key: "_output_shapes"
        value {
          list {
            shape {
              dim {
                size: 40
              }
              dim {
                size: 2
              }
            }
          }
        }
      }
      attr {
        key: "dtype"
        value {
          type: DT_FLOAT
        }
      }
    }
    node {
      name: "QNetwork/dense_2/bias"
      op: "VarHandleOp"
      attr {
        key: "_output_shapes"
        value {
          list {
            shape {
            }
          }
        }
      }
      attr {
        key: "dtype"
        value {
          type: DT_FLOAT
        }
      }
      attr {
        key: "shape"
        value {
          shape {
            dim {
              size: 2
            }
          }
        }
      }
      attr {
        key: "shared_name"
        value {
          s: "QNetwork/dense_2/bias"
        }
      }
    }
    node {
      name: "QNetwork/dense_2/bias/Read/ReadVariableOp"
      op: "ReadVariableOp"
      input: "QNetwork/dense_2/bias"
      attr {
        key: "_output_shapes"
        value {
          list {
            shape {
              dim {
                size: 2
              }
            }
          }
        }
      }
      attr {
        key: "dtype"
        value {
          type: DT_FLOAT
        }
      }
    }
    node {
      name: "NoOp"
      op: "NoOp"
    }
    node {
      name: "Const"
      op: "Const"
      device: "/device:CPU:0"
      attr {
        key: "_output_shapes"
        value {
          list {
            shape {
            }
          }
        }
      }
      attr {
        key: "dtype"
        value {
          type: DT_STRING
        }
      }
      attr {
        key: "value"
        value {
          tensor {
            dtype: DT_STRING
            tensor_shape {
            }
            string_val: "…"
          }
        }
      }
    }
    node {
      name: "action_callee_basic_block_count"
      op: "Placeholder"
      attr {
        key: "_output_shapes"
        value {
          list {
            shape {
              dim {
                size: 1
              }
            }
          }
        }
      }
      attr {
        key: "dtype"
        value {
          type: DT_INT64
        }
      }
      attr {
        key: "shape"
        value {
          shape {
            dim {
              size: 1
            }
          }
        }
      }
    }
    node {
      name: "action_callee_conditionally_executed_blocks"
      op: "Placeholder"
      attr {
        key: "_output_shapes"
        value {
          list {
            shape {
              dim {
                size: 1
              }
            }
          }
        }
      }
      attr {
        key: "dtype"
        value {
          type: DT_INT64
        }
      }
      attr {
        key: "shape"
        value {
          shape {
            dim {
              size: 1
            }
          }
        }
      }
    }
    node {
      name: "action_callee_users"
      op: "Placeholder"
      attr {
        key: "_output_shapes"
        value {
          list {
            shape {
              dim {
                size: 1
              }
            }
          }
        }
      }
      attr {
        key: "dtype"
        value {
          type: DT_INT64
        }
      }
      attr {
        key: "shape"
        value {
          shape {
            dim {
              size: 1
            }
          }
        }
      }
    }
    node {
      name: "action_caller_basic_block_count"
      op: "Placeholder"
      attr {
        key: "_output_shapes"
        value {
          list {
            shape {
              dim {
                size: 1
              }
            }
          }
        }
      }
      attr {
        key: "dtype"
        value {
          type: DT_INT64
        }
      }
      attr {
        key: "shape"
        value {
          shape {
            dim {
              size: 1
            }
          }
        }
      }
    }
    node {
      name: "action_caller_conditionally_executed_blocks"
      op: "Placeholder"
      attr {
        key: "_output_shapes"
        value {
          list {
            shape {
              dim {
                size: 1
              }
            }
          }
        }
      }
      attr {
        key: "dtype"
        value {
          type: DT_INT64
        }
      }
      attr {
        key: "shape"
        value {
          shape {
            dim {
              size: 1
            }
          }
        }
      }
    }
    node {
      name: "action_caller_users"
      op: "Placeholder"
      attr {
        key: "_output_shapes"
        value {
          list {
            shape {
              dim {
                size: 1
              }
            }
          }
        }
      }
      attr {
        key: "dtype"
        value {
          type: DT_INT64
        }
      }
      attr {
        key: "shape"
        value {
          shape {
            dim {
              size: 1
            }
          }
        }
      }
    }
    node {
      name: "action_callsite_height"
      op: "Placeholder"
      attr {
        key: "_output_shapes"
        value {
          list {
            shape {
              dim {
                size: 1
              }
            }
          }
        }
      }
      attr {
        key: "dtype"
        value {
          type: DT_INT64
        }
      }
      attr {
        key: "shape"
        value {
          shape {
            dim {
              size: 1
            }
          }
        }
      }
    }
    node {
      name: "action_cost_estimate"
      op: "Placeholder"
      attr {
        key: "_output_shapes"
        value {
          list {
            shape {
              dim {
                size: 1
              }
            }
          }
        }
      }
      attr {
        key: "dtype"
        value {
          type: DT_INT64
        }
      }
      attr {
        key: "shape"
        value {
          shape {
            dim {
              size: 1
            }
          }
        }
      }
    }
    node {
      name: "action_discount"
      op: "Placeholder"
      attr {
        key: "_output_shapes"
        value {
          list {
            shape {
              dim {
                size: 1
              }
            }
          }
        }
      }
      attr {
        key: "dtype"
        value {
          type: DT_FLOAT
        }
      }
      attr {
        key: "shape"
        value {
          shape {
            dim {
              size: 1
            }
          }
        }
      }
    }
    node {
      name: "action_edge_count"
      op: "Placeholder"
      attr {
        key: "_output_shapes"
        value {
          list {
            shape {
              dim {
                size: 1
              }
            }
          }
        }
      }
      attr {
        key: "dtype"
        value {
          type: DT_INT64
        }
      }
      attr {
        key: "shape"
        value {
          shape {
            dim {
              size: 1
            }
          }
        }
      }
    }
    node {
      name: "action_inlining_default"
      op: "Placeholder"
      attr {
        key: "_output_shapes"
        value {
          list {
            shape {
              dim {
                size: 1
              }
            }
          }
        }
      }
      attr {
        key: "dtype"
        value {
          type: DT_INT64
        }
      }
      attr {
        key: "shape"
        value {
          shape {
            dim {
              size: 1
            }
          }
        }
      }
    }
    node {
      name: "action_node_count"
      op: "Placeholder"
      attr {
        key: "_output_shapes"
        value {
          list {
            shape {
              dim {
                size: 1
              }
            }
          }
        }
      }
      attr {
        key: "dtype"
        value {
          type: DT_INT64
        }
      }
      attr {
        key: "shape"
        value {
          shape {
            dim {
              size: 1
            }
          }
        }
      }
    }
    node {
      name: "action_nr_ctant_params"
      op: "Placeholder"
      attr {
        key: "_output_shapes"
        value {
          list {
            shape {
              dim {
                size: 1
              }
            }
          }
        }
      }
      attr {
        key: "dtype"
        value {
          type: DT_INT64
        }
      }
      attr {
        key: "shape"
        value {
          shape {
            dim {
              size: 1
            }
          }
        }
      }
    }
    node {
      name: "action_reward"
      op: "Placeholder"
      attr {
        key: "_output_shapes"
        value {
          list {
            shape {
              dim {
                size: 1
              }
            }
          }
        }
      }
      attr {
        key: "dtype"
        value {
          type: DT_FLOAT
        }
      }
      attr {
        key: "shape"
        value {
          shape {
            dim {
              size: 1
            }
          }
        }
      }
    }
    node {
      name: "action_step_type"
      op: "Placeholder"
      attr {
        key: "_output_shapes"
        value {
          list {
            shape {
              dim {
                size: 1
              }
            }
          }
        }
      }
      attr {
        key: "dtype"
        value {
          type: DT_INT32
        }
      }
      attr {
        key: "shape"
        value {
          shape {
            dim {
              size: 1
            }
          }
        }
      }
    }
    node {
      name: "StatefulPartitionedCall"
      op: "StatefulPartitionedCall"
      input: "action_callee_basic_block_count"
      input: "action_callee_conditionally_executed_blocks"
      input: "action_callee_users"
      input: "action_caller_basic_block_count"
      input: "action_caller_conditionally_executed_blocks"
      input: "action_caller_users"
      input: "action_callsite_height"
      input: "action_cost_estimate"
      input: "action_discount"
      input: "action_edge_count"
      input: "action_inlining_default"
      input: "action_node_count"
      input: "action_nr_ctant_params"
      input: "action_reward"
      input: "action_step_type"
      input: "QNetwork/EncodingNetwork/dense/kernel"
      input: "QNetwork/EncodingNetwork/dense/bias"
      input: "QNetwork/EncodingNetwork/dense_1/kernel"
      input: "QNetwork/EncodingNetwork/dense_1/bias"
      input: "QNetwork/dense_2/kernel"
      input: "QNetwork/dense_2/bias"
      attr {
        key: "Tin"
        value {
          list {
            type: DT_INT64
            type: DT_INT64
            type: DT_INT64
            type: DT_INT64
            type: DT_INT64
            type: DT_INT64
            type: DT_INT64
            type: DT_INT64
            type: DT_FLOAT
            type: DT_INT64
            type: DT_INT64
            type: DT_INT64
            type: DT_INT64
            type: DT_FLOAT
            type: DT_INT32
            type: DT_RESOURCE
            type: DT_RESOURCE
            type: DT_RESOURCE
            type: DT_RESOURCE
            type: DT_RESOURCE
            type: DT_RESOURCE
          }
        }
      }
      attr {
        key: "Tout"
        value {
          list {
            type: DT_INT64
          }
        }
      }
      attr {
        key: "_collective_manager_ids"
        value {
          list {
          }
        }
      }
      attr {
        key: "_output_shapes"
        value {
          list {
            shape {
              dim {
                size: 1
              }
            }
          }
        }
      }
      attr {
        key: "_read_only_resource_inputs"
        value {
          list {
            i: 15
            i: 16
            i: 17
            i: 18
            i: 19
            i: 20
          }
        }
      }
      attr {
        key: "config_proto"
        value {
          s: "\n\007\n\003CPU\020\001\n\007\n\003GPU\020\0012\005*\0010J\0008\001"
        }
      }
      attr {
        key: "f"
        value {
          func {
            name: "__inference_signature_wrapper_4619026"
          }
        }
      }
    }
    node {
      name: "PartitionedCall"
      op: "PartitionedCall"
      attr {
        key: "Tin"
        value {
          list {
          }
        }
      }
      attr {
        key: "Tout"
        value {
          list {
          }
        }
      }
      attr {
        key: "_collective_manager_ids"
        value {
          list {
          }
        }
      }
      attr {
        key: "_read_only_resource_inputs"
        value {
          list {
          }
        }
      }
      attr {
        key: "config_proto"
        value {
          s: "\n\007\n\003CPU\020\001\n\007\n\003GPU\020\0012\005*\0010J\0008\001"
        }
      }
      attr {
        key: "f"
        value {
          func {
            name: "__inference_signature_wrapper_4619033"
          }
        }
      }
    }
    node {
      name: "StatefulPartitionedCall_1"
      op: "StatefulPartitionedCall"
      input: "train_step"
      attr {
        key: "Tin"
        value {
          list {
            type: DT_RESOURCE
          }
        }
      }
      attr {
        key: "Tout"
        value {
          list {
            type: DT_INT64
          }
        }
      }
      attr {
        key: "_collective_manager_ids"
        value {
          list {
          }
        }
      }
      attr {
        key: "_output_shapes"
        value {
          list {
            shape {
            }
          }
        }
      }
      attr {
        key: "_read_only_resource_inputs"
        value {
          list {
            i: 0
          }
        }
      }
      attr {
        key: "config_proto"
        value {
          s: "\n\007\n\003CPU\020\001\n\007\n\003GPU\020\0012\005*\0010J\0008\001"
        }
      }
      attr {
        key: "f"
        value {
          func {
            name: "__inference_signature_wrapper_4619048"
          }
        }
      }
    }
    node {
      name: "saver_filename"
      op: "Placeholder"
      attr {
        key: "_output_shapes"
        value {
          list {
            shape {
            }
          }
        }
      }
      attr {
        key: "dtype"
        value {
          type: DT_STRING
        }
      }
      attr {
        key: "shape"
        value {
          shape {
          }
        }
      }
    }
    node {
      name: "StatefulPartitionedCall_2"
      op: "StatefulPartitionedCall"
      input: "saver_filename"
      input: "train_step/Read/ReadVariableOp"
      input: "QNetwork/EncodingNetwork/dense/kernel/Read/ReadVariableOp"
      input: "QNetwork/EncodingNetwork/dense/bias/Read/ReadVariableOp"
      input: "QNetwork/EncodingNetwork/dense_1/kernel/Read/ReadVariableOp"
      input: "QNetwork/EncodingNetwork/dense_1/bias/Read/ReadVariableOp"
      input: "QNetwork/dense_2/kernel/Read/ReadVariableOp"
      input: "QNetwork/dense_2/bias/Read/ReadVariableOp"
      input: "Const"
      attr {
        key: "Tin"
        value {
          list {
            type: DT_STRING
            type: DT_INT64
            type: DT_FLOAT
            type: DT_FLOAT
            type: DT_FLOAT
            type: DT_FLOAT
            type: DT_FLOAT
            type: DT_FLOAT
            type: DT_STRING
          }
        }
      }
      attr {
        key: "Tout"
        value {
          list {
            type: DT_STRING
          }
        }
      }
      attr {
        key: "_collective_manager_ids"
        value {
          list {
          }
        }
      }
      attr {
        key: "_output_shapes"
        value {
          list {
            shape {
            }
          }
        }
      }
      attr {
        key: "_read_only_resource_inputs"
        value {
          list {
          }
        }
      }
      attr {
        key: "config_proto"
        value {
          s: "\n\007\n\003CPU\020\001\n\007\n\003GPU\020\0012\005*\0010J\0008\001"
        }
      }
      attr {
        key: "f"
        value {
          func {
            name: "__inference__traced_save_4619143"
          }
        }
      }
    }
    node {
      name: "StatefulPartitionedCall_3"
      op: "StatefulPartitionedCall"
      input: "saver_filename"
      input: "train_step"
      input: "QNetwork/EncodingNetwork/dense/kernel"
      input: "QNetwork/EncodingNetwork/dense/bias"
      input: "QNetwork/EncodingNetwork/dense_1/kernel"
      input: "QNetwork/EncodingNetwork/dense_1/bias"
      input: "QNetwork/dense_2/kernel"
      input: "QNetwork/dense_2/bias"
      attr {
        key: "Tin"
        value {
          list {
            type: DT_STRING
            type: DT_RESOURCE
            type: DT_RESOURCE
            type: DT_RESOURCE
            type: DT_RESOURCE
            type: DT_RESOURCE
            type: DT_RESOURCE
            type: DT_RESOURCE
          }
        }
      }
      attr {
        key: "Tout"
        value {
          list {
            type: DT_STRING
          }
        }
      }
      attr {
        key: "_collective_manager_ids"
        value {
          list {
          }
        }
      }
      attr {
        key: "_output_shapes"
        value {
          list {
            shape {
            }
          }
        }
      }
      attr {
        key: "_read_only_resource_inputs"
        value {
          list {
          }
        }
      }
      attr {
        key: "config_proto"
        value {
          s: "\n\007\n\003CPU\020\001\n\007\n\003GPU\020\0012\005*\0010J\0008\001"
        }
      }
      attr {
        key: "f"
        value {
          func {
            name: "__inference__traced_restore_4619176"
          }
        }
      }
    }
    library {
      function {
        signature {
          name: "__inference_signature_wrapper_4619048"
          input_arg {
            name: "unknown"
            type: DT_RESOURCE
          }
          output_arg {
            name: "identity"
            type: DT_INT64
          }
          is_stateful: true
          control_output: "StatefulPartitionedCall"
        }
        node_def {
          name: "StatefulPartitionedCall"
          op: "StatefulPartitionedCall"
          input: "unknown"
          attr {
            key: "Tin"
            value {
              list {
                type: DT_RESOURCE
              }
            }
          }
          attr {
            key: "Tout"
            value {
              list {
                type: DT_INT64
              }
            }
          }
          attr {
            key: "_collective_manager_ids"
            value {
              list {
              }
            }
          }
          attr {
            key: "_output_shapes"
            value {
              list {
                shape {
                }
              }
            }
          }
          attr {
            key: "_read_only_resource_inputs"
            value {
              list {
                i: 0
              }
            }
          }
          attr {
            key: "config_proto"
            value {
              s: "\n\007\n\003CPU\020\001\n\007\n\003GPU\020\0012\005*\0010J\0008\001"
            }
          }
          attr {
            key: "f"
            value {
              func {
                name: "__inference_function_with_signature_4619040"
              }
            }
          }
          experimental_debug_info {
            original_node_names: "StatefulPartitionedCall"
          }
        }
        node_def {
          name: "Identity"
          op: "Identity"
          input: "StatefulPartitionedCall:output:0"
          input: "^StatefulPartitionedCall"
          attr {
            key: "T"
            value {
              type: DT_INT64
            }
          }
          attr {
            key: "_output_shapes"
            value {
              list {
                shape {
                }
              }
            }
          }
          experimental_debug_info {
            original_node_names: "Identity"
          }
        }
        ret {
          key: "identity"
          value: "Identity:output:0"
        }
        attr {
          key: "_input_shapes"
          value {
            list {
              shape {
                unknown_rank: true
              }
            }
          }
        }
        control_ret {
          key: "StatefulPartitionedCall"
          value: "StatefulPartitionedCall"
        }
        arg_attr {
          key: 0
          value {
            attr {
              key: "_output_shapes"
              value {
                list {
                  shape {
                  }
                }
              }
            }
          }
        }
      }
      function {
        signature {
          name: "__inference_function_with_signature_4619029"
        }
        node_def {
          name: "PartitionedCall"
          op: "PartitionedCall"
          attr {
            key: "Tin"
            value {
              list {
              }
            }
          }
          attr {
            key: "Tout"
            value {
              list {
              }
            }
          }
          attr {
            key: "_collective_manager_ids"
            value {
              list {
              }
            }
          }
          attr {
            key: "_output_shapes"
            value {
              list {
              }
            }
          }
          attr {
            key: "_read_only_resource_inputs"
            value {
              list {
              }
            }
          }
          attr {
            key: "config_proto"
            value {
              s: "\n\007\n\003CPU\020\001\n\007\n\003GPU\020\0012\005*\0010J\0008\001"
            }
          }
          attr {
            key: "f"
            value {
              func {
                name: "__inference_function_722"
              }
            }
          }
          experimental_debug_info {
            original_node_names: "PartitionedCall"
          }
        }
        attr {
          key: "_input_shapes"
          value {
          }
        }
      }
      function {
        signature {
          name: "__inference_action_931"
          input_arg {
            name: "time_step"
            type: DT_INT32
          }
          input_arg {
            name: "time_step_1"
            type: DT_FLOAT
          }
          input_arg {
            name: "time_step_2"
            type: DT_FLOAT
          }
          input_arg {
            name: "time_step_3"
            type: DT_INT64
          }
          input_arg {
            name: "time_step_4"
            type: DT_INT64
          }
          input_arg {
            name: "time_step_5"
            type: DT_INT64
          }
          input_arg {
            name: "time_step_6"
            type: DT_INT64
          }
          input_arg {
            name: "time_step_7"
            type: DT_INT64
          }
          input_arg {
            name: "time_step_8"
            type: DT_INT64
          }
          input_arg {
            name: "time_step_9"
            type: DT_INT64
          }
          input_arg {
            name: "time_step_10"
            type: DT_INT64
          }
          input_arg {
            name: "time_step_11"
            type: DT_INT64
          }
          input_arg {
            name: "time_step_12"
            type: DT_INT64
          }
          input_arg {
            name: "time_step_13"
            type: DT_INT64
          }
          input_arg {
            name: "time_step_14"
            type: DT_INT64
          }
          input_arg {
            name: "qnetwork_encodingnetwork_dense_matmul_readvariableop_resource"
            type: DT_RESOURCE
          }
          input_arg {
            name: "qnetwork_encodingnetwork_dense_biasadd_readvariableop_resource"
            type: DT_RESOURCE
          }
          input_arg {
            name: "qnetwork_encodingnetwork_dense_1_matmul_readvariableop_resource"
            type: DT_RESOURCE
          }
          input_arg {
            name: "qnetwork_encodingnetwork_dense_1_biasadd_readvariableop_resource"
            type: DT_RESOURCE
          }
          input_arg {
            name: "qnetwork_dense_2_matmul_readvariableop_resource"
            type: DT_RESOURCE
          }
          input_arg {
            name: "qnetwork_dense_2_biasadd_readvariableop_resource"
            type: DT_RESOURCE
          }
          output_arg {
            name: "identity"
            type: DT_INT64
          }
          is_stateful: true
        }
        node_def {
          name: "QNetwork/EncodingNetwork/lambda/expand_dims/ExpandDims/dim"
          op: "Const"
          attr {
            key: "_output_shapes"
            value {
              list {
                shape {
                }
              }
            }
          }
          attr {
            key: "dtype"
            value {
              type: DT_INT32
            }
          }
          attr {
            key: "value"
            value {
              tensor {
                dtype: DT_INT32
                tensor_shape {
                }
                int_val: -1
              }
            }
          }
          experimental_debug_info {
            original_node_names: "QNetwork/EncodingNetwork/lambda/expand_dims/ExpandDims/dim"
          }
        }
        node_def {
          name: "QNetwork/EncodingNetwork/lambda/expand_dims/ExpandDims"
          op: "ExpandDims"
          input: "time_step_3"
          input: "QNetwork/EncodingNetwork/lambda/expand_dims/ExpandDims/dim:output:0"
          attr {
            key: "T"
            value {
              type: DT_INT64
            }
          }
          attr {
            key: "_output_shapes"
            value {
              list {
                shape {
                  dim {
                    size: 1
                  }
                  dim {
                    size: 1
                  }
                }
              }
            }
          }
          experimental_debug_info {
            original_node_names: "QNetwork/EncodingNetwork/lambda/expand_dims/ExpandDims"
          }
        }
        node_def {
          name: "QNetwork/EncodingNetwork/lambda/Bucketize"
          op: "Bucketize"
          input: "QNetwork/EncodingNetwork/lambda/expand_dims/ExpandDims:output:0"
          attr {
            key: "T"
            value {
              type: DT_INT64
            }
          }
          attr {
            key: "_output_shapes"
            value {
              list {
                shape {
                  dim {
                    size: 1
                  }
                  dim {
                    size: 1
                  }
                }
              }
            }
          }
          attr {
            key: "boundaries"
            value {
              list {
                f: 1
                f: 1
                f: 1
                f: 1
                f: 1
                f: 1
                f: 1
                f: 1
                f: 1
                f: 1
                f: 1
                f: 1
                f: 1
                f: 1
                f: 1
                f: 1
                f: 1
                f: 1
                f: 1
                f: 1
                f: 1
                f: 1
                f: 1
                f: 1
                f: 1
                f: 1
                f: 1
                f: 1
                f: 1
                f: 1
                f: 1
                f: 1
                f: 1
                f: 1
                f: 1
                f: 1
                f: 1
                f: 1
                f: 1
                f: 1
                f: 1
                f: 1
                f: 1
                f: 1
                f: 1
                f: 1
                f: 1
                f: 1
                f: 1
                f: 1
                f: 1
                f: 1
                f: 1
                f: 1
                f: 1
                f: 1
                f: 1
                f: 1
                f: 1
                f: 1
                f: 1
                f: 1
                f: 1
                f: 1
                f: 1
                f: 1
                f: 1
                f: 1
                f: 1
                f: 1
                f: 1
                f: 1
                f: 1
                f: 1
                f: 1
                f: 1
                f: 1
                f: 1
                f: 1
                f: 1
                f: 1
                f: 1
                f: 1
                f: 1
                f: 1
                f: 1
                f: 1
                f: 1
                f: 1
                f: 1
                f: 1
                f: 1
                f: 1
                f: 1
                f: 1
                f: 1
                f: 1
                f: 1
                f: 1
                f: 1
                f: 1
                f: 1
                f: 1
                f: 1
                f: 1
                f: 1
                f: 1
                f: 1
                f: 1
                f: 1
                f: 1
                f: 1
                f: 1
                f: 1
                f: 1
                f: 1
                f: 1
                f: 1
                f: 1
                f: 1
                f: 1
                f: 1
                f: 1
                f: 1
                f: 1
                f: 1
                f: 1
                f: 1
                f: 1
                f: 1
                f: 1
                f: 1
                f: 1
                f: 1
                f: 1
                f: 1
                f: 1
                f: 1
                f: 1
                f: 1
                f: 1
                f: 1
                f: 1
                f: 1
                f: 1
                f: 1
                f: 1
                f: 1
                f: 1
                f: 1
                f: 1
                f: 1
                f: 1
                f: 1
                f: 1
                f: 1
                f: 1
                f: 1
                f: 1
                f: 1
                f: 1
                f: 1
                f: 1
                f: 1
                f: 1
                f: 1
                f: 1
                f: 1
                f: 1
                f: 1
                f: 1
                f: 1
                f: 1
                f: 1
                f: 1
                f: 1
                f: 1
                f: 1
                f: 1
                f: 1
                f: 1
                f: 1
                f: 1
                f: 1
                f: 1
                f: 1
                f: 1
                f: 1
                f: 1
                f: 1
                f: 1
                f: 1
                f: 1
                f: 1
                f: 1
                f: 1
                f: 1
                f: 1
                f: 1
                f: 1
                f: 1
                f: 1
                f: 1
                f: 1
                f: 1
                f: 1
                f: 1
                f: 1
                f: 1
                f: 1
                f: 1
                f: 1
                f: 1
                f: 1
                f: 1
                f: 1
                f: 1
                f: 1
                f: 1
                f: 1
                f: 1
                f: 1
                f: 1
                f: 1
                f: 1
                f: 1
                f: 1
                f: 1
                f: 1
                f: 1
                f: 1
                f: 1
                f: 1
                f: 1
                f: 1
                f: 1
                f: 1
                f: 1
                f: 1
                f: 1
                f: 1
                f: 1
                f: 1
                f: 1
                f: 1
                f: 1
                f: 1
                f: 1
                f: 1
                f: 1
                f: 1
                f: 1
                f: 1
                f: 1
                f: 1
                f: 1
                f: 1
                f: 1
                f: 1
                f: 1
                f: 1
                f: 1
                f: 1
                f: 1
                f: 1
                f: 1
                f: 1
                f: 1
                f: 1
                f: 1
                f: 1
                f: 1
                f: 1
                f: 1
                f: 1
                f: 1
                f: 1
                f: 1
                f: 1
                f: 1
                f: 1
                f: 1
                f: 1
                f: 1
                f: 1
                f: 1
                f: 1
                f: 1
                f: 1
                f: 1
                f: 1
                f: 1
                f: 1
                f: 1
                f: 1
                f: 1
                f: 1
                f: 1
                f: 1
                f: 1
                f: 1
                f: 1
                f: 1
                f: 1
                f: 1
                f: 1
                f: 1
                f: 1
                f: 1
                f: 1
                f: 1
                f: 1
                f: 1
                f: 1
                f: 1
                f: 1
                f: 1
                f: 1
                f: 1
                f: 1
                f: 1
                f: 1
                f: 1
                f: 1
                f: 1
                f: 1
                f: 1
                f: 1
                f: 1
                f: 1
                f: 1
                f: 1
                f: 1
                f: 1
                f: 1
                f: 1
                f: 1
                f: 1
                f: 1
                f: 1
                f: 1
                f: 1
                f: 1
                f: 1
                f: 1
                f: 1
                f: 1
                f: 1
                f: 1
                f: 1
                f: 1
                f: 1
                f: 1
                f: 1
                f: 1
                f: 1
                f: 1
                f: 1
                f: 1
                f: 1
                f: 1
                f: 1
                f: 1
                f: 1
                f: 1
                f: 1
                f: 1
                f: 1
                f: 1
                f: 1
                f: 1
                f: 1
                f: 1
                f: 1
                f: 1
                f: 1
                f: 1
                f: 1
                f: 1
                f: 1
                f: 1
                f: 1
                f: 1
                f: 1
                f: 1
                f: 1
                f: 1
                f: 1
                f: 1
                f: 1
                f: 1
                f: 1
                f: 1
                f: 1
                f: 1
                f: 1
                f: 1
                f: 1
                f: 1
                f: 1
                f: 1
                f: 1
                f: 1
                f: 1
                f: 1
                f: 1
                f: 1
                f: 1
                f: 1
                f: 1
                f: 1
                f: 1
                f: 1
                f: 1
                f: 1
                f: 1
                f: 1
                f: 1
                f: 1
                f: 1
                f: 1
                f: 1
                f: 1
                f: 1
                f: 1
                f: 1
                f: 1
                f: 1
                f: 1
                f: 1
                f: 1
                f: 1
                f: 1
                f: 1
                f: 1
                f: 1
                f: 1
                f: 1
                f: 1
                f: 1
                f: 1
                f: 1
                f: 1
                f: 1
                f: 1
                f: 1
                f: 1
                f: 1
                f: 1
                f: 1
                f: 1
                f: 1
                f: 1
                f: 1
                f: 1
                f: 1
                f: 1
                f: 1
                f: 1
                f: 1
                f: 1
                f: 1
                f: 1
                f: 1
                f: 1
                f: 1
                f: 1
                f: 1
                f: 1
                f: 1
                f: 1
                f: 1
                f: 1
                f: 1
                f: 1
                f: 1
                f: 1
                f: 1
                f: 1
                f: 1
                f: 1
                f: 1
                f: 1
                f: 1
                f: 1
                f: 1
                f: 1
                f: 1
                f: 1
                f: 1
                f: 1
                f: 1
                f: 1
                f: 1
                f: 1
                f: 1
                f: 1
                f: 1
                f: 1
                f: 1
                f: 1
                f: 1
                f: 1
                f: 1
                f: 1
                f: 1
                f: 1
                f: 1
                f: 1
                f: 1
                f: 1
                f: 1
                f: 1
                f: 1
                f: 1
                f: 1
                f: 1
                f: 1
                f: 1
                f: 1
                f: 1
                f: 1
                f: 1
                f: 1
                f: 1
                f: 1
                f: 1
                f: 1
                f: 1
                f: 1
                f: 1
                f: 1
                f: 1
                f: 1
                f: 1
                f: 1
                f: 1
                f: 1
                f: 1
                f: 1
                f: 1
                f: 1
                f: 1
                f: 1
                f: 1
                f: 1
                f: 1
                f: 1
                f: 1
                f: 1
                f: 1
                f: 1
                f: 1
                f: 1
                f: 1
                f: 1
                f: 1
                f: 1
                f: 1
                f: 1
                f: 1
                f: 1
                f: 1
                f: 1
                f: 1
                f: 1
                f: 1
                f: 1
                f: 1
                f: 1
                f: 1
                f: 1
                f: 1
                f: 1
                f: 1
                f: 1
                f: 1
                f: 1
                f: 1
                f: 1
                f: 1
                f: 1
                f: 1
                f: 1
                f: 1
                f: 1
                f: 1
                f: 1
                f: 1
                f: 1
                f: 1
                f: 1
                f: 1
                f: 1
                f: 1
                f: 1
                f: 1
                f: 1
                f: 1
                f: 1
                f: 1
                f: 1
                f: 1
                f: 1
                f: 1
                f: 1
                f: 1
                f: 1
                f: 1
                f: 1
                f: 1
                f: 1
                f: 1
                f: 1
                f: 1
                f: 1
                f: 1
                f: 1
                f: 1
                f: 1
                f: 1
                f: 1
                f: 1
                f: 1
                f: 1
                f: 1
                f: 1
                f: 1
                f: 1
                f: 1
                f: 1
                f: 1
                f: 1
                f: 1
                f: 1
                f: 1
                f: 1
                f: 1
                f: 1
                f: 1
                f: 1
                f: 1
                f: 1
                f: 1
                f: 1
                f: 1
                f: 1
                f: 1
                f: 1
                f: 1
                f: 1
                f: 1
                f: 1
                f: 1
                f: 1
                f: 1
                f: 1
                f: 1
                f: 1
                f: 1
                f: 1
                f: 1
                f: 1
                f: 1
                f: 1
                f: 1
                f: 1
                f: 1
                f: 1
                f: 1
                f: 1
                f: 1
                f: 1
                f: 1
                f: 1
                f: 1
                f: 1
                f: 1
                f: 1
                f: 1
                f: 1
                f: 1
                f: 1
                f: 1
                f: 1
                f: 1
                f: 1
                f: 1
                f: 1
                f: 1
                f: 1
                f: 1
                f: 1
                f: 1
                f: 1
                f: 1
                f: 1
                f: 1
                f: 1
                f: 1
                f: 1
                f: 1
                f: 1
                f: 1
                f: 1
                f: 1
                f: 1
                f: 1
                f: 1
                f: 1
                f: 1
                f: 1
                f: 1
                f: 1
                f: 1
                f: 1
                f: 1
                f: 1
                f: 1
                f: 1
                f: 1
                f: 1
                f: 1
                f: 1
                f: 1
                f: 1
                f: 1
                f: 1
                f: 1
                f: 1
                f: 1
                f: 1
                f: 1
                f: 1
                f: 1
                f: 1
                f: 1
                f: 1
                f: 1
                f: 1
                f: 1
                f: 1
                f: 1
                f: 1
                f: 1
                f: 1
                f: 1
                f: 1
                f: 1
                f: 1
                f: 1
                f: 1
                f: 1
                f: 1
                f: 1
                f: 1
                f: 1
                f: 1
                f: 1
                f: 1
                f: 1
                f: 1
                f: 1
                f: 1
                f: 1
                f: 1
                f: 1
                f: 1
                f: 1
                f: 1
                f: 1
                f: 1
                f: 1
                f: 1
                f: 1
                f: 1
                f: 1
                f: 1
                f: 1
                f: 1
                f: 1
                f: 3
                f: 3
                f: 3
                f: 3
                f: 3
                f: 3
                f: 3
                f: 3
                f: 3
                f: 3
                f: 3
                f: 3
                f: 3
                f: 3
                f: 3
                f: 3
                f: 3
                f: 3
                f: 3
                f: 3
                f: 3
                f: 3
                f: 3
                f: 3
                f: 3
                f: 3
                f: 3
                f: 3
                f: 3
                f: 3
                f: 3
                f: 3
                f: 3
                f: 3
                f: 3
                f: 3
                f: 3
                f: 3
                f: 3
                f: 3
                f: 3
                f: 3
                f: 3
                f: 3
                f: 3
                f: 3
                f: 3
                f: 3
                f: 3
                f: 3
                f: 3
                f: 3
                f: 3
                f: 3
                f: 3
                f: 3
                f: 3
                f: 3
                f: 3
                f: 3
                f: 3
                f: 3
                f: 3
                f: 3
                f: 3
                f: 3
                f: 3
                f: 3
                f: 3
                f: 3
                f: 3
                f: 3
                f: 3
                f: 3
                f: 3
                f: 3
                f: 3
                f: 3
                f: 3
                f: 3
                f: 3
                f: 3
                f: 3
                f: 3
                f: 3
                f: 3
                f: 3
                f: 3
                f: 3
                f: 3
                f: 3
                f: 3
                f: 4
                f: 4
                f: 4
                f: 4
                f: 4
                f: 4
                f: 4
                f: 4
                f: 4
                f: 4
                f: 4
                f: 4
                f: 4
                f: 4
                f: 4
                f: 4
                f: 4
                f: 4
                f: 4
                f: 4
                f: 4
                f: 4
                f: 4
                f: 4
                f: 4
                f: 4
                f: 4
                f: 4
                f: 4
                f: 4
                f: 4
                f: 4
                f: 4
                f: 4
                f: 4
                f: 4
                f: 4
                f: 4
                f: 4
                f: 4
                f: 4
                f: 4
                f: 4
                f: 4
                f: 4
                f: 4
                f: 4
                f: 4
                f: 4
                f: 4
                f: 4
                f: 4
                f: 4
                f: 4
                f: 4
                f: 4
                f: 4
                f: 4
                f: 4
                f: 4
                f: 5
                f: 5
                f: 5
                f: 5
                f: 5
                f: 5
                f: 5
                f: 5
                f: 5
                f: 5
                f: 5
                f: 5
                f: 5
                f: 5
                f: 5
                f: 5
                f: 6
                f: 6
                f: 6
                f: 6
                f: 6
                f: 6
                f: 6
                f: 6
                f: 6
                f: 6
                f: 7
                f: 7
                f: 7
                f: 7
                f: 7
                f: 7
                f: 7
                f: 7
                f: 8
                f: 8
                f: 8
                f: 8
                f: 8
                f: 8
                f: 8
                f: 8
                f: 8
                f: 8
                f: 8
                f: 8
                f: 8
                f: 8
                f: 9
                f: 9
                f: 9
                f: 9
                f: 10
                f: 10
                f: 11
                f: 12
                f: 13
                f: 14
                f: 14
                f: 14
                f: 16
                f: 17
                f: 19
                f: 23
                f: 27
                f: 39
              }
            }
          }
          experimental_debug_info {
            original_node_names: "QNetwork/EncodingNetwork/lambda/Bucketize"
          }
        }
        node_def {
          name: "QNetwork/EncodingNetwork/lambda/Cast"
          op: "Cast"
          input: "QNetwork/EncodingNetwork/lambda/Bucketize:output:0"
          attr {
            key: "DstT"
            value {
              type: DT_FLOAT
            }
          }
          attr {
            key: "SrcT"
            value {
              type: DT_INT32
            }
          }
          attr {
            key: "_output_shapes"
            value {
              list {
                shape {
                  dim {
                    size: 1
                  }
                  dim {
                    size: 1
                  }
                }
              }
            }
          }
          experimental_debug_info {
            original_node_names: "QNetwork/EncodingNetwork/lambda/Cast"
          }
        }
        node_def {
          name: "QNetwork/EncodingNetwork/lambda/truediv/y"
          op: "Const"
          attr {
            key: "_output_shapes"
            value {
              list {
                shape {
                }
              }
            }
          }
          attr {
            key: "dtype"
            value {
              type: DT_FLOAT
            }
          }
          attr {
            key: "value"
            value {
              tensor {
                dtype: DT_FLOAT
                tensor_shape {
                }
                float_val: 999
              }
            }
          }
          experimental_debug_info {
            original_node_names: "QNetwork/EncodingNetwork/lambda/truediv/y"
          }
        }
        node_def {
          name: "QNetwork/EncodingNetwork/lambda/truediv"
          op: "RealDiv"
          input: "QNetwork/EncodingNetwork/lambda/Cast:y:0"
          input: "QNetwork/EncodingNetwork/lambda/truediv/y:output:0"
          attr {
            key: "T"
            value {
              type: DT_FLOAT
            }
          }
          attr {
            key: "_output_shapes"
            value {
              list {
                shape {
                  dim {
                    size: 1
                  }
                  dim {
                    size: 1
                  }
                }
              }
            }
          }
          experimental_debug_info {
            original_node_names: "QNetwork/EncodingNetwork/lambda/truediv"
          }
        }
        node_def {
          name: "QNetwork/EncodingNetwork/lambda/Sqrt"
          op: "Sqrt"
          input: "QNetwork/EncodingNetwork/lambda/truediv:z:0"
          attr {
            key: "T"
            value {
              type: DT_FLOAT
            }
          }
          attr {
            key: "_output_shapes"
            value {
              list {
                shape {
                  dim {
                    size: 1
                  }
                  dim {
                    size: 1
                  }
                }
              }
            }
          }
          experimental_debug_info {
            original_node_names: "QNetwork/EncodingNetwork/lambda/Sqrt"
          }
        }
        node_def {
          name: "QNetwork/EncodingNetwork/lambda/mul"
          op: "Mul"
          input: "QNetwork/EncodingNetwork/lambda/truediv:z:0"
          input: "QNetwork/EncodingNetwork/lambda/truediv:z:0"
          attr {
            key: "T"
            value {
              type: DT_FLOAT
            }
          }
          attr {
            key: "_output_shapes"
            value {
              list {
                shape {
                  dim {
                    size: 1
                  }
                  dim {
                    size: 1
                  }
                }
              }
            }
          }
          experimental_debug_info {
            original_node_names: "QNetwork/EncodingNetwork/lambda/mul"
          }
        }
        node_def {
          name: "QNetwork/EncodingNetwork/lambda/concat/axis"
          op: "Const"
          attr {
            key: "_output_shapes"
            value {
              list {
                shape {
                }
              }
            }
          }
          attr {
            key: "dtype"
            value {
              type: DT_INT32
            }
          }
          attr {
            key: "value"
            value {
              tensor {
                dtype: DT_INT32
                tensor_shape {
                }
                int_val: -1
              }
            }
          }
          experimental_debug_info {
            original_node_names: "QNetwork/EncodingNetwork/lambda/concat/axis"
          }
        }
        node_def {
          name: "QNetwork/EncodingNetwork/lambda/concat"
          op: "ConcatV2"
          input: "QNetwork/EncodingNetwork/lambda/truediv:z:0"
          input: "QNetwork/EncodingNetwork/lambda/Sqrt:y:0"
          input: "QNetwork/EncodingNetwork/lambda/mul:z:0"
          input: "QNetwork/EncodingNetwork/lambda/concat/axis:output:0"
          attr {
            key: "N"
            value {
              i: 3
            }
          }
          attr {
            key: "T"
            value {
              type: DT_FLOAT
            }
          }
          attr {
            key: "_output_shapes"
            value {
              list {
                shape {
                  dim {
                    size: 1
                  }
                  dim {
                    size: 3
                  }
                }
              }
            }
          }
          experimental_debug_info {
            original_node_names: "QNetwork/EncodingNetwork/lambda/concat"
          }
        }
        node_def {
          name: "QNetwork/EncodingNetwork/lambda_1/expand_dims/ExpandDims/dim"
          op: "Const"
          attr {
            key: "_output_shapes"
            value {
              list {
                shape {
                }
              }
            }
          }
          attr {
            key: "dtype"
            value {
              type: DT_INT32
            }
          }
          attr {
            key: "value"
            value {
              tensor {
                dtype: DT_INT32
                tensor_shape {
                }
                int_val: -1
              }
            }
          }
          experimental_debug_info {
            original_node_names: "QNetwork/EncodingNetwork/lambda_1/expand_dims/ExpandDims/dim"
          }
        }
        node_def {
          name: "QNetwork/EncodingNetwork/lambda_1/expand_dims/ExpandDims"
          op: "ExpandDims"
          input: "time_step_4"
          input: "QNetwork/EncodingNetwork/lambda_1/expand_dims/ExpandDims/dim:output:0"
          attr {
            key: "T"
            value {
              type: DT_INT64
            }
          }
          attr {
            key: "_output_shapes"
            value {
              list {
                shape {
                  dim {
                    size: 1
                  }
                  dim {
                    size: 1
                  }
                }
              }
            }
          }
          experimental_debug_info {
            original_node_names: "QNetwork/EncodingNetwork/lambda_1/expand_dims/ExpandDims"
          }
        }
        node_def {
          name: "QNetwork/EncodingNetwork/lambda_1/Bucketize"
          op: "Bucketize"
          input: "QNetwork/EncodingNetwork/lambda_1/expand_dims/ExpandDims:output:0"
          attr {
            key: "T"
            value {
              type: DT_INT64
            }
          }
          attr {
            key: "_output_shapes"
            value {
              list {
                shape {
                  dim {
                    size: 1
                  }
                  dim {
                    size: 1
                  }
                }
              }
            }
          }
          attr {
            key: "boundaries"
            value {
              list {
                f: 0
                f: 0
                f: 0
                f: 0
                f: 0
                f: 0
                f: 0
                f: 0
                f: 0
                f: 0
                f: 0
                f: 0
                f: 0
                f: 0
                f: 0
                f: 0
                f: 0
                f: 0
                f: 0
                f: 0
                f: 0
                f: 0
                f: 0
                f: 0
                f: 0
                f: 0
                f: 0
                f: 0
                f: 0
                f: 0
                f: 0
                f: 0
                f: 0
                f: 0
                f: 0
                f: 0
                f: 0
                f: 0
                f: 0
                f: 0
                f: 0
                f: 0
                f: 0
                f: 0
                f: 0
                f: 0
                f: 0
                f: 0
                f: 0
                f: 0
                f: 0
                f: 0
                f: 0
                f: 0
                f: 0
                f: 0
                f: 0
                f: 0
                f: 0
                f: 0
                f: 0
                f: 0
                f: 0
                f: 0
                f: 0
                f: 0
                f: 0
                f: 0
                f: 0
                f: 0
                f: 0
                f: 0
                f: 0
                f: 0
                f: 0
                f: 0
                f: 0
                f: 0
                f: 0
                f: 0
                f: 0
                f: 0
                f: 0
                f: 0
                f: 0
                f: 0
                f: 0
                f: 0
                f: 0
                f: 0
                f: 0
                f: 0
                f: 0
                f: 0
                f: 0
                f: 0
                f: 0
                f: 0
                f: 0
                f: 0
                f: 0
                f: 0
                f: 0
                f: 0
                f: 0
                f: 0
                f: 0
                f: 0
                f: 0
                f: 0
                f: 0
                f: 0
                f: 0
                f: 0
                f: 0
                f: 0
                f: 0
                f: 0
                f: 0
                f: 0
                f: 0
                f: 0
                f: 0
                f: 0
                f: 0
                f: 0
                f: 0
                f: 0
                f: 0
                f: 0
                f: 0
                f: 0
                f: 0
                f: 0
                f: 0
                f: 0
                f: 0
                f: 0
                f: 0
                f: 0
                f: 0
                f: 0
                f: 0
                f: 0
                f: 0
                f: 0
                f: 0
                f: 0
                f: 0
                f: 0
                f: 0
                f: 0
                f: 0
                f: 0
                f: 0
                f: 0
                f: 0
                f: 0
                f: 0
                f: 0
                f: 0
                f: 0
                f: 0
                f: 0
                f: 0
                f: 0
                f: 0
                f: 0
                f: 0
                f: 0
                f: 0
                f: 0
                f: 0
                f: 0
                f: 0
                f: 0
                f: 0
                f: 0
                f: 0
                f: 0
                f: 0
                f: 0
                f: 0
                f: 0
                f: 0
                f: 0
                f: 0
                f: 0
                f: 0
                f: 0
                f: 0
                f: 0
                f: 0
                f: 0
                f: 0
                f: 0
                f: 0
                f: 0
                f: 0
                f: 0
                f: 0
                f: 0
                f: 0
                f: 0
                f: 0
                f: 0
                f: 0
                f: 0
                f: 0
                f: 0
                f: 0
                f: 0
                f: 0
                f: 0
                f: 0
                f: 0
                f: 0
                f: 0
                f: 0
                f: 0
                f: 0
                f: 0
                f: 0
                f: 0
                f: 0
                f: 0
                f: 0
                f: 0
                f: 0
                f: 0
                f: 0
                f: 0
                f: 0
                f: 0
                f: 0
                f: 0
                f: 0
                f: 0
                f: 0
                f: 0
                f: 0
                f: 0
                f: 0
                f: 0
                f: 0
                f: 0
                f: 0
                f: 0
                f: 0
                f: 0
                f: 0
                f: 0
                f: 0
                f: 0
                f: 0
                f: 0
                f: 0
                f: 0
                f: 0
                f: 0
                f: 0
                f: 0
                f: 0
                f: 0
                f: 0
                f: 0
                f: 0
                f: 0
                f: 0
                f: 0
                f: 0
                f: 0
                f: 0
                f: 0
                f: 0
                f: 0
                f: 0
                f: 0
                f: 0
                f: 0
                f: 0
                f: 0
                f: 0
                f: 0
                f: 0
                f: 0
                f: 0
                f: 0
                f: 0
                f: 0
                f: 0
                f: 0
                f: 0
                f: 0
                f: 0
                f: 0
                f: 0
                f: 0
                f: 0
                f: 0
                f: 0
                f: 0
                f: 0
                f: 0
                f: 0
                f: 0
                f: 0
                f: 0
                f: 0
                f: 0
                f: 0
                f: 0
                f: 0
                f: 0
                f: 0
                f: 0
                f: 0
                f: 0
                f: 0
                f: 0
                f: 0
                f: 0
                f: 0
                f: 0
                f: 0
                f: 0
                f: 0
                f: 0
                f: 0
                f: 0
                f: 0
                f: 0
                f: 0
                f: 0
                f: 0
                f: 0
                f: 0
                f: 0
                f: 0
                f: 0
                f: 0
                f: 0
                f: 0
                f: 0
                f: 0
                f: 0
                f: 0
                f: 0
                f: 0
                f: 0
                f: 0
                f: 0
                f: 0
                f: 0
                f: 0
                f: 0
                f: 0
                f: 0
                f: 0
                f: 0
                f: 0
                f: 0
                f: 0
                f: 0
                f: 0
                f: 0
                f: 0
                f: 0
                f: 0
                f: 0
                f: 0
                f: 0
                f: 0
                f: 0
                f: 0
                f: 0
                f: 0
                f: 0
                f: 0
                f: 0
                f: 0
                f: 0
                f: 0
                f: 0
                f: 0
                f: 0
                f: 0
                f: 0
                f: 0
                f: 0
                f: 0
                f: 0
                f: 0
                f: 0
                f: 0
                f: 0
                f: 0
                f: 0
                f: 0
                f: 0
                f: 0
                f: 0
                f: 0
                f: 0
                f: 0
                f: 0
                f: 0
                f: 0
                f: 0
                f: 0
                f: 0
                f: 0
                f: 0
                f: 0
                f: 0
                f: 0
                f: 0
                f: 0
                f: 0
                f: 0
                f: 0
                f: 0
                f: 0
                f: 0
                f: 0
                f: 0
                f: 0
                f: 0
                f: 0
                f: 0
                f: 0
                f: 0
                f: 0
                f: 0
                f: 0
                f: 0
                f: 0
                f: 0
                f: 0
                f: 0
                f: 0
                f: 0
                f: 0
                f: 0
                f: 0
                f: 0
                f: 0
                f: 0
                f: 0
                f: 0
                f: 0
                f: 0
                f: 0
                f: 0
                f: 0
                f: 0
                f: 0
                f: 0
                f: 0
                f: 0
                f: 0
                f: 0
                f: 0
                f: 0
                f: 0
                f: 0
                f: 0
                f: 0
                f: 0
                f: 0
                f: 0
                f: 0
                f: 0
                f: 0
                f: 0
                f: 0
                f: 0
                f: 0
                f: 0
                f: 0
                f: 0
                f: 0
                f: 0
                f: 0
                f: 0
                f: 0
                f: 0
                f: 0
                f: 0
                f: 0
                f: 0
                f: 0
                f: 0
                f: 0
                f: 0
                f: 0
                f: 0
                f: 0
                f: 0
                f: 0
                f: 0
                f: 0
                f: 0
                f: 0
                f: 0
                f: 0
                f: 0
                f: 0
                f: 0
                f: 0
                f: 0
                f: 0
                f: 0
                f: 0
                f: 0
                f: 0
                f: 0
                f: 0
                f: 0
                f: 0
                f: 0
                f: 0
                f: 0
                f: 0
                f: 0
                f: 0
                f: 0
                f: 0
                f: 0
                f: 0
                f: 0
                f: 0
                f: 0
                f: 0
                f: 0
                f: 0
                f: 0
                f: 0
                f: 0
                f: 0
                f: 0
                f: 0
                f: 0
                f: 0
                f: 0
                f: 0
                f: 0
                f: 0
                f: 0
                f: 0
                f: 0
                f: 0
                f: 0
                f: 0
                f: 0
                f: 0
                f: 0
                f: 0
                f: 0
                f: 0
                f: 0
                f: 0
                f: 0
                f: 0
                f: 0
                f: 0
                f: 0
                f: 0
                f: 0
                f: 0
                f: 0
                f: 0
                f: 0
                f: 0
                f: 0
                f: 0
                f: 0
                f: 0
                f: 0
                f: 0
                f: 0
                f: 0
                f: 0
                f: 0
                f: 0
                f: 0
                f: 0
                f: 0
                f: 0
                f: 0
                f: 0
                f: 0
                f: 0
                f: 0
                f: 0
                f: 0
                f: 0
                f: 0
                f: 0
                f: 0
                f: 0
                f: 0
                f: 0
                f: 0
                f: 0
                f: 0
                f: 0
                f: 0
                f: 0
                f: 0
                f: 0
                f: 0
                f: 0
                f: 0
                f: 0
                f: 0
                f: 0
                f: 0
                f: 0
                f: 0
                f: 0
                f: 0
                f: 0
                f: 0
                f: 0
                f: 0
                f: 0
                f: 0
                f: 0
                f: 0
                f: 0
                f: 0
                f: 0
                f: 0
                f: 0
                f: 0
                f: 0
                f: 0
                f: 0
                f: 0
                f: 0
                f: 0
                f: 0
                f: 0
                f: 0
                f: 0
                f: 0
                f: 0
                f: 0
                f: 0
                f: 0
                f: 0
                f: 0
                f: 0
                f: 0
                f: 0
                f: 0
                f: 0
                f: 0
                f: 0
                f: 0
                f: 0
                f: 0
                f: 0
                f: 0
                f: 0
                f: 0
                f: 0
                f: 0
                f: 0
                f: 0
                f: 0
                f: 0
                f: 0
                f: 0
                f: 0
                f: 0
                f: 0
                f: 0
                f: 0
                f: 0
                f: 0
                f: 0
                f: 0
                f: 0
                f: 0
                f: 0
                f: 0
                f: 0
                f: 0
                f: 0
                f: 0
                f: 0
                f: 0
                f: 0
                f: 0
                f: 0
                f: 0
                f: 0
                f: 0
                f: 0
                f: 0
                f: 0
                f: 0
                f: 0
                f: 0
                f: 0
                f: 0
                f: 0
                f: 0
                f: 0
                f: 0
                f: 0
                f: 0
                f: 0
                f: 0
                f: 0
                f: 0
                f: 0
                f: 0
                f: 0
                f: 0
                f: 0
                f: 0
                f: 0
                f: 0
                f: 0
                f: 0
                f: 0
                f: 0
                f: 0
                f: 0
                f: 0
                f: 0
                f: 0
                f: 0
                f: 0
                f: 0
                f: 0
                f: 0
                f: 0
                f: 0
                f: 0
                f: 0
                f: 0
                f: 0
                f: 0
                f: 0
                f: 0
                f: 0
                f: 0
                f: 0
                f: 0
                f: 0
                f: 0
                f: 0
                f: 0
                f: 0
                f: 0
                f: 0
                f: 0
                f: 0
                f: 0
                f: 0
                f: 0
                f: 0
                f: 0
                f: 0
                f: 0
                f: 0
                f: 0
                f: 0
                f: 0
                f: 0
                f: 0
                f: 0
                f: 0
                f: 0
                f: 0
                f: 0
                f: 0
                f: 2
                f: 2
                f: 2
                f: 2
                f: 2
                f: 2
                f: 2
                f: 2
                f: 2
                f: 2
                f: 2
                f: 2
                f: 2
                f: 2
                f: 2
                f: 2
                f: 2
                f: 2
                f: 2
                f: 2
                f: 2
                f: 2
                f: 2
                f: 2
                f: 2
                f: 2
                f: 2
                f: 2
                f: 2
                f: 2
                f: 2
                f: 2
                f: 2
                f: 2
                f: 2
                f: 2
                f: 2
                f: 2
                f: 2
                f: 2
                f: 2
                f: 2
                f: 2
                f: 2
                f: 2
                f: 2
                f: 2
                f: 2
                f: 2
                f: 2
                f: 2
                f: 2
                f: 2
                f: 2
                f: 2
                f: 2
                f: 2
                f: 2
                f: 2
                f: 2
                f: 2
                f: 2
                f: 2
                f: 2
                f: 2
                f: 2
                f: 2
                f: 2
                f: 2
                f: 2
                f: 2
                f: 2
                f: 2
                f: 2
                f: 2
                f: 2
                f: 2
                f: 2
                f: 2
                f: 2
                f: 2
                f: 2
                f: 2
                f: 2
                f: 2
                f: 2
                f: 2
                f: 2
                f: 2
                f: 2
                f: 2
                f: 2
                f: 2
                f: 2
                f: 2
                f: 2
                f: 2
                f: 2
                f: 2
                f: 2
                f: 2
                f: 2
                f: 2
                f: 2
                f: 2
                f: 2
                f: 2
                f: 2
                f: 2
                f: 2
                f: 2
                f: 2
                f: 2
                f: 2
                f: 2
                f: 2
                f: 2
                f: 2
                f: 2
                f: 2
                f: 2
                f: 2
                f: 2
                f: 2
                f: 2
                f: 2
                f: 2
                f: 2
                f: 2
                f: 2
                f: 2
                f: 2
                f: 2
                f: 2
                f: 2
                f: 2
                f: 2
                f: 2
                f: 2
                f: 2
                f: 2
                f: 2
                f: 2
                f: 2
                f: 2
                f: 2
                f: 2
                f: 3
                f: 3
                f: 4
                f: 4
                f: 4
                f: 4
                f: 4
                f: 4
                f: 4
                f: 4
                f: 4
                f: 4
                f: 4
                f: 4
                f: 4
                f: 4
                f: 4
                f: 4
                f: 4
                f: 4
                f: 4
                f: 4
                f: 4
                f: 4
                f: 4
                f: 4
                f: 4
                f: 4
                f: 6
                f: 6
                f: 6
                f: 6
                f: 6
                f: 6
                f: 6
                f: 6
                f: 6
                f: 6
                f: 6
                f: 6
                f: 6
                f: 6
                f: 6
                f: 6
                f: 6
                f: 6
                f: 6
                f: 6
                f: 6
                f: 6
                f: 6
                f: 6
                f: 7
                f: 8
                f: 8
                f: 8
                f: 8
                f: 9
                f: 10
                f: 10
                f: 10
                f: 12
                f: 12
                f: 12
                f: 14
                f: 14
                f: 18
                f: 20
                f: 23
                f: 30
                f: 41
              }
            }
          }
          experimental_debug_info {
            original_node_names: "QNetwork/EncodingNetwork/lambda_1/Bucketize"
          }
        }
        node_def {
          name: "QNetwork/EncodingNetwork/lambda_1/Cast"
          op: "Cast"
          input: "QNetwork/EncodingNetwork/lambda_1/Bucketize:output:0"
          attr {
            key: "DstT"
            value {
              type: DT_FLOAT
            }
          }
          attr {
            key: "SrcT"
            value {
              type: DT_INT32
            }
          }
          attr {
            key: "_output_shapes"
            value {
              list {
                shape {
                  dim {
                    size: 1
                  }
                  dim {
                    size: 1
                  }
                }
              }
            }
          }
          experimental_debug_info {
            original_node_names: "QNetwork/EncodingNetwork/lambda_1/Cast"
          }
        }
        node_def {
          name: "QNetwork/EncodingNetwork/lambda_1/truediv/y"
          op: "Const"
          attr {
            key: "_output_shapes"
            value {
              list {
                shape {
                }
              }
            }
          }
          attr {
            key: "dtype"
            value {
              type: DT_FLOAT
            }
          }
          attr {
            key: "value"
            value {
              tensor {
                dtype: DT_FLOAT
                tensor_shape {
                }
                float_val: 999
              }
            }
          }
          experimental_debug_info {
            original_node_names: "QNetwork/EncodingNetwork/lambda_1/truediv/y"
          }
        }
        node_def {
          name: "QNetwork/EncodingNetwork/lambda_1/truediv"
          op: "RealDiv"
          input: "QNetwork/EncodingNetwork/lambda_1/Cast:y:0"
          input: "QNetwork/EncodingNetwork/lambda_1/truediv/y:output:0"
          attr {
            key: "T"
            value {
              type: DT_FLOAT
            }
          }
          attr {
            key: "_output_shapes"
            value {
              list {
                shape {
                  dim {
                    size: 1
                  }
                  dim {
                    size: 1
                  }
                }
              }
            }
          }
          experimental_debug_info {
            original_node_names: "QNetwork/EncodingNetwork/lambda_1/truediv"
          }
        }
        node_def {
          name: "QNetwork/EncodingNetwork/lambda_1/Sqrt"
          op: "Sqrt"
          input: "QNetwork/EncodingNetwork/lambda_1/truediv:z:0"
          attr {
            key: "T"
            value {
              type: DT_FLOAT
            }
          }
          attr {
            key: "_output_shapes"
            value {
              list {
                shape {
                  dim {
                    size: 1
                  }
                  dim {
                    size: 1
                  }
                }
              }
            }
          }
          experimental_debug_info {
            original_node_names: "QNetwork/EncodingNetwork/lambda_1/Sqrt"
          }
        }
        node_def {
          name: "QNetwork/EncodingNetwork/lambda_1/mul"
          op: "Mul"
          input: "QNetwork/EncodingNetwork/lambda_1/truediv:z:0"
          input: "QNetwork/EncodingNetwork/lambda_1/truediv:z:0"
          attr {
            key: "T"
            value {
              type: DT_FLOAT
            }
          }
          attr {
            key: "_output_shapes"
            value {
              list {
                shape {
                  dim {
                    size: 1
                  }
                  dim {
                    size: 1
                  }
                }
              }
            }
          }
          experimental_debug_info {
            original_node_names: "QNetwork/EncodingNetwork/lambda_1/mul"
          }
        }
        node_def {
          name: "QNetwork/EncodingNetwork/lambda_1/concat/axis"
          op: "Const"
          attr {
            key: "_output_shapes"
            value {
              list {
                shape {
                }
              }
            }
          }
          attr {
            key: "dtype"
            value {
              type: DT_INT32
            }
          }
          attr {
            key: "value"
            value {
              tensor {
                dtype: DT_INT32
                tensor_shape {
                }
                int_val: -1
              }
            }
          }
          experimental_debug_info {
            original_node_names: "QNetwork/EncodingNetwork/lambda_1/concat/axis"
          }
        }
        node_def {
          name: "QNetwork/EncodingNetwork/lambda_1/concat"
          op: "ConcatV2"
          input: "QNetwork/EncodingNetwork/lambda_1/truediv:z:0"
          input: "QNetwork/EncodingNetwork/lambda_1/Sqrt:y:0"
          input: "QNetwork/EncodingNetwork/lambda_1/mul:z:0"
          input: "QNetwork/EncodingNetwork/lambda_1/concat/axis:output:0"
          attr {
            key: "N"
            value {
              i: 3
            }
          }
          attr {
            key: "T"
            value {
              type: DT_FLOAT
            }
          }
          attr {
            key: "_output_shapes"
            value {
              list {
                shape {
                  dim {
                    size: 1
                  }
                  dim {
                    size: 3
                  }
                }
              }
            }
          }
          experimental_debug_info {
            original_node_names: "QNetwork/EncodingNetwork/lambda_1/concat"
          }
        }
        node_def {
          name: "QNetwork/EncodingNetwork/lambda_2/expand_dims/ExpandDims/dim"
          op: "Const"
          attr {
            key: "_output_shapes"
            value {
              list {
                shape {
                }
              }
            }
          }
          attr {
            key: "dtype"
            value {
              type: DT_INT32
            }
          }
          attr {
            key: "value"
            value {
              tensor {
                dtype: DT_INT32
                tensor_shape {
                }
                int_val: -1
              }
            }
          }
          experimental_debug_info {
            original_node_names: "QNetwork/EncodingNetwork/lambda_2/expand_dims/ExpandDims/dim"
          }
        }
        node_def {
          name: "QNetwork/EncodingNetwork/lambda_2/expand_dims/ExpandDims"
          op: "ExpandDims"
          input: "time_step_5"
          input: "QNetwork/EncodingNetwork/lambda_2/expand_dims/ExpandDims/dim:output:0"
          attr {
            key: "T"
            value {
              type: DT_INT64
            }
          }
          attr {
            key: "_output_shapes"
            value {
              list {
                shape {
                  dim {
                    size: 1
                  }
                  dim {
                    size: 1
                  }
                }
              }
            }
          }
          experimental_debug_info {
            original_node_names: "QNetwork/EncodingNetwork/lambda_2/expand_dims/ExpandDims"
          }
        }
        node_def {
          name: "QNetwork/EncodingNetwork/lambda_2/Bucketize"
          op: "Bucketize"
          input: "QNetwork/EncodingNetwork/lambda_2/expand_dims/ExpandDims:output:0"
          attr {
            key: "T"
            value {
              type: DT_INT64
            }
          }
          attr {
            key: "_output_shapes"
            value {
              list {
                shape {
                  dim {
                    size: 1
                  }
                  dim {
                    size: 1
                  }
                }
              }
            }
          }
          attr {
            key: "boundaries"
            value {
              list {
                f: 1
                f: 1
                f: 1
                f: 1
                f: 1
                f: 1
                f: 2
                f: 2
                f: 2
                f: 2
                f: 2
                f: 2
                f: 2
                f: 2
                f: 2
                f: 2
                f: 2
                f: 2
                f: 2
                f: 2
                f: 2
                f: 2
                f: 2
                f: 2
                f: 2
                f: 2
                f: 2
                f: 2
                f: 2
                f: 2
                f: 2
                f: 2
                f: 2
                f: 2
                f: 2
                f: 2
                f: 2
                f: 2
                f: 2
                f: 2
                f: 2
                f: 2
                f: 2
                f: 2
                f: 2
                f: 2
                f: 2
                f: 2
                f: 2
                f: 2
                f: 2
                f: 2
                f: 2
                f: 2
                f: 2
                f: 2
                f: 2
                f: 2
                f: 2
                f: 2
                f: 2
                f: 2
                f: 2
                f: 2
                f: 2
                f: 2
                f: 2
                f: 2
                f: 2
                f: 2
                f: 2
                f: 2
                f: 2
                f: 2
                f: 2
                f: 2
                f: 2
                f: 2
                f: 2
                f: 2
                f: 2
                f: 2
                f: 2
                f: 2
                f: 2
                f: 2
                f: 2
                f: 2
                f: 2
                f: 2
                f: 2
                f: 2
                f: 2
                f: 2
                f: 2
                f: 2
                f: 2
                f: 2
                f: 2
                f: 2
                f: 2
                f: 2
                f: 2
                f: 2
                f: 2
                f: 2
                f: 2
                f: 2
                f: 2
                f: 2
                f: 2
                f: 2
                f: 2
                f: 2
                f: 2
                f: 2
                f: 2
                f: 2
                f: 2
                f: 2
                f: 2
                f: 2
                f: 2
                f: 2
                f: 2
                f: 2
                f: 2
                f: 2
                f: 2
                f: 2
                f: 2
                f: 2
                f: 2
                f: 2
                f: 2
                f: 2
                f: 2
                f: 2
                f: 2
                f: 2
                f: 2
                f: 2
                f: 2
                f: 2
                f: 2
                f: 2
                f: 2
                f: 2
                f: 2
                f: 2
                f: 2
                f: 2
                f: 2
                f: 2
                f: 2
                f: 2
                f: 2
                f: 2
                f: 2
                f: 2
                f: 2
                f: 2
                f: 2
                f: 2
                f: 2
                f: 2
                f: 2
                f: 2
                f: 2
                f: 2
                f: 2
                f: 2
                f: 2
                f: 2
                f: 2
                f: 2
                f: 2
                f: 2
                f: 2
                f: 2
                f: 2
                f: 2
                f: 2
                f: 2
                f: 2
                f: 2
                f: 2
                f: 2
                f: 2
                f: 2
                f: 2
                f: 2
                f: 2
                f: 2
                f: 2
                f: 2
                f: 2
                f: 2
                f: 2
                f: 2
                f: 2
                f: 2
                f: 2
                f: 2
                f: 2
                f: 2
                f: 2
                f: 2
                f: 2
                f: 2
                f: 2
                f: 2
                f: 2
                f: 2
                f: 2
                f: 2
                f: 2
                f: 2
                f: 2
                f: 2
                f: 2
                f: 2
                f: 2
                f: 2
                f: 2
                f: 2
                f: 2
                f: 2
                f: 2
                f: 2
                f: 2
                f: 2
                f: 2
                f: 2
                f: 2
                f: 2
                f: 2
                f: 2
                f: 2
                f: 2
                f: 2
                f: 2
                f: 2
                f: 2
                f: 2
                f: 2
                f: 2
                f: 2
                f: 2
                f: 2
                f: 2
                f: 2
                f: 2
                f: 2
                f: 2
                f: 2
                f: 2
                f: 2
                f: 2
                f: 2
                f: 2
                f: 2
                f: 2
                f: 2
                f: 2
                f: 2
                f: 2
                f: 2
                f: 2
                f: 2
                f: 2
                f: 2
                f: 2
                f: 2
                f: 2
                f: 2
                f: 2
                f: 2
                f: 2
                f: 2
                f: 2
                f: 2
                f: 2
                f: 2
                f: 2
                f: 2
                f: 2
                f: 2
                f: 2
                f: 2
                f: 2
                f: 2
                f: 2
                f: 2
                f: 2
                f: 2
                f: 2
                f: 2
                f: 2
                f: 2
                f: 2
                f: 2
                f: 2
                f: 2
                f: 3
                f: 3
                f: 3
                f: 3
                f: 3
                f: 3
                f: 3
                f: 3
                f: 3
                f: 3
                f: 3
                f: 3
                f: 3
                f: 3
                f: 3
                f: 3
                f: 3
                f: 3
                f: 3
                f: 3
                f: 3
                f: 3
                f: 3
                f: 3
                f: 3
                f: 3
                f: 3
                f: 3
                f: 3
                f: 3
                f: 3
                f: 3
                f: 3
                f: 3
                f: 3
                f: 3
                f: 3
                f: 3
                f: 3
                f: 3
                f: 3
                f: 3
                f: 3
                f: 3
                f: 3
                f: 3
                f: 3
                f: 3
                f: 3
                f: 3
                f: 3
                f: 3
                f: 3
                f: 3
                f: 3
                f: 3
                f: 3
                f: 3
                f: 3
                f: 3
                f: 3
                f: 3
                f: 3
                f: 3
                f: 3
                f: 3
                f: 3
                f: 3
                f: 3
                f: 3
                f: 3
                f: 3
                f: 3
                f: 3
                f: 3
                f: 3
                f: 3
                f: 3
                f: 3
                f: 3
                f: 3
                f: 3
                f: 3
                f: 3
                f: 3
                f: 3
                f: 3
                f: 3
                f: 3
                f: 3
                f: 3
                f: 3
                f: 3
                f: 3
                f: 3
                f: 3
                f: 3
                f: 3
                f: 3
                f: 3
                f: 3
                f: 3
                f: 3
                f: 3
                f: 3
                f: 3
                f: 3
                f: 3
                f: 3
                f: 3
                f: 3
                f: 3
                f: 3
                f: 3
                f: 3
                f: 3
                f: 3
                f: 3
                f: 3
                f: 3
                f: 3
                f: 3
                f: 3
                f: 3
                f: 3
                f: 3
                f: 3
                f: 3
                f: 3
                f: 3
                f: 3
                f: 3
                f: 3
                f: 4
                f: 4
                f: 4
                f: 4
                f: 4
                f: 4
                f: 4
                f: 4
                f: 4
                f: 4
                f: 4
                f: 4
                f: 4
                f: 4
                f: 4
                f: 4
                f: 4
                f: 4
                f: 4
                f: 4
                f: 4
                f: 4
                f: 4
                f: 4
                f: 4
                f: 4
                f: 4
                f: 4
                f: 4
                f: 4
                f: 4
                f: 4
                f: 4
                f: 4
                f: 4
                f: 4
                f: 4
                f: 4
                f: 4
                f: 4
                f: 4
                f: 4
                f: 4
                f: 4
                f: 4
                f: 4
                f: 4
                f: 4
                f: 4
                f: 4
                f: 4
                f: 4
                f: 4
                f: 4
                f: 4
                f: 4
                f: 4
                f: 4
                f: 4
                f: 4
                f: 4
                f: 4
                f: 4
                f: 4
                f: 4
                f: 4
                f: 4
                f: 4
                f: 4
                f: 4
                f: 4
                f: 4
                f: 4
                f: 4
                f: 4
                f: 5
                f: 5
                f: 5
                f: 5
                f: 5
                f: 5
                f: 5
                f: 5
                f: 5
                f: 5
                f: 5
                f: 5
                f: 5
                f: 5
                f: 5
                f: 5
                f: 5
                f: 5
                f: 5
                f: 5
                f: 5
                f: 5
                f: 5
                f: 5
                f: 5
                f: 5
                f: 5
                f: 5
                f: 5
                f: 5
                f: 5
                f: 5
                f: 5
                f: 5
                f: 5
                f: 5
                f: 5
                f: 5
                f: 5
                f: 5
                f: 5
                f: 5
                f: 5
                f: 5
                f: 5
                f: 5
                f: 5
                f: 5
                f: 5
                f: 5
                f: 5
                f: 5
                f: 6
                f: 6
                f: 6
                f: 6
                f: 6
                f: 6
                f: 6
                f: 6
                f: 6
                f: 6
                f: 6
                f: 6
                f: 6
                f: 6
                f: 6
                f: 6
                f: 6
                f: 6
                f: 6
                f: 6
                f: 6
                f: 6
                f: 6
                f: 6
                f: 6
                f: 6
                f: 6
                f: 6
                f: 6
                f: 6
                f: 6
                f: 7
                f: 7
                f: 7
                f: 7
                f: 7
                f: 7
                f: 7
                f: 7
                f: 7
                f: 7
                f: 7
                f: 7
                f: 7
                f: 7
                f: 7
                f: 7
                f: 7
                f: 7
                f: 7
                f: 7
                f: 7
                f: 7
                f: 7
                f: 7
                f: 7
                f: 7
                f: 7
                f: 7
                f: 7
                f: 7
                f: 7
                f: 7
                f: 8
                f: 8
                f: 8
                f: 8
                f: 8
                f: 8
                f: 8
                f: 8
                f: 8
                f: 8
                f: 8
                f: 8
                f: 8
                f: 8
                f: 8
                f: 8
                f: 8
                f: 8
                f: 8
                f: 8
                f: 9
                f: 9
                f: 9
                f: 9
                f: 9
                f: 9
                f: 9
                f: 9
                f: 9
                f: 9
                f: 9
                f: 9
                f: 9
                f: 9
                f: 9
                f: 9
                f: 9
                f: 9
                f: 9
                f: 9
                f: 9
                f: 9
                f: 10
                f: 10
                f: 10
                f: 10
                f: 10
                f: 10
                f: 10
                f: 10
                f: 10
                f: 10
                f: 10
                f: 10
                f: 10
                f: 10
                f: 11
                f: 11
                f: 11
                f: 11
                f: 11
                f: 11
                f: 11
                f: 11
                f: 11
                f: 11
                f: 11
                f: 11
                f: 12
                f: 12
                f: 12
                f: 12
                f: 12
                f: 12
                f: 12
                f: 12
                f: 12
                f: 12
                f: 13
                f: 13
                f: 13
                f: 13
                f: 13
                f: 13
                f: 13
                f: 13
                f: 13
                f: 13
                f: 13
                f: 13
                f: 13
                f: 14
                f: 14
                f: 14
                f: 14
                f: 14
                f: 14
                f: 14
                f: 14
                f: 14
                f: 14
                f: 14
                f: 14
                f: 15
                f: 15
                f: 15
                f: 15
                f: 15
                f: 15
                f: 15
                f: 16
                f: 16
                f: 16
                f: 16
                f: 16
                f: 16
                f: 17
                f: 17
                f: 17
                f: 17
                f: 17
                f: 17
                f: 17
                f: 17
                f: 17
                f: 18
                f: 18
                f: 18
                f: 18
                f: 18
                f: 19
                f: 19
                f: 19
                f: 19
                f: 19
                f: 20
                f: 20
                f: 20
                f: 20
                f: 20
                f: 21
                f: 21
                f: 21
                f: 21
                f: 21
                f: 21
                f: 21
                f: 22
                f: 22
                f: 22
                f: 22
                f: 23
                f: 23
                f: 23
                f: 24
                f: 24
                f: 24
                f: 25
                f: 25
                f: 25
                f: 25
                f: 25
                f: 25
                f: 26
                f: 26
                f: 26
                f: 27
                f: 27
                f: 27
                f: 27
                f: 28
                f: 28
                f: 29
                f: 29
                f: 29
                f: 29
                f: 30
                f: 30
                f: 31
                f: 31
                f: 31
                f: 31
                f: 32
                f: 32
                f: 33
                f: 33
                f: 33
                f: 34
                f: 34
                f: 34
                f: 34
                f: 35
                f: 35
                f: 36
                f: 36
                f: 37
                f: 37
                f: 37
                f: 38
                f: 38
                f: 39
                f: 39
                f: 40
                f: 40
                f: 41
                f: 41
                f: 41
                f: 42
                f: 43
                f: 43
                f: 44
                f: 44
                f: 45
                f: 45
                f: 46
                f: 46
                f: 46
                f: 47
                f: 47
                f: 48
                f: 49
                f: 49
                f: 50
                f: 50
                f: 51
                f: 52
                f: 53
                f: 53
                f: 54
                f: 55
                f: 56
                f: 57
                f: 57
                f: 58
                f: 59
                f: 60
                f: 61
                f: 61
                f: 63
                f: 63
                f: 64
                f: 65
                f: 66
                f: 67
                f: 67
                f: 69
                f: 70
                f: 71
                f: 72
                f: 73
                f: 74
                f: 75
                f: 77
                f: 78
                f: 79
                f: 80
                f: 81
                f: 82
                f: 83
                f: 85
                f: 86
                f: 88
                f: 89
                f: 91
                f: 92
                f: 94
                f: 96
                f: 97
                f: 99
                f: 100
                f: 101
                f: 103
                f: 105
                f: 107
                f: 109
                f: 111
                f: 113
                f: 115
                f: 118
                f: 121
                f: 123
                f: 126
                f: 128
                f: 130
                f: 133
                f: 135
                f: 137
                f: 140
                f: 143
                f: 146
                f: 148
                f: 151
                f: 154
                f: 157
                f: 161
                f: 163
                f: 166
                f: 169
                f: 173
                f: 178
                f: 183
                f: 189
                f: 193
                f: 197
                f: 202
                f: 208
                f: 213
                f: 218
                f: 223
                f: 228
                f: 233
                f: 239
                f: 245
                f: 250
                f: 257
                f: 262
                f: 269
                f: 277
                f: 284
                f: 292
                f: 300
                f: 308
                f: 319
                f: 329
                f: 340
                f: 349
                f: 359
                f: 371
                f: 382
                f: 394
                f: 410
                f: 423
                f: 435
                f: 445
                f: 462
                f: 480
                f: 492
                f: 506
                f: 519
                f: 536
                f: 557
                f: 577
                f: 598
                f: 622
                f: 655
                f: 679
                f: 707
                f: 733
                f: 751
                f: 787
                f: 814
                f: 847
                f: 897
                f: 934
                f: 997
                f: 1062
                f: 1111
                f: 1181
                f: 1275
                f: 1385
                f: 1465
                f: 1603
                f: 1769
                f: 2057
                f: 2257
                f: 2803
                f: 3468
                f: 4417
                f: 6538
                f: 16126
                f: 23446
                f: 33536
              }
            }
          }
          experimental_debug_info {
            original_node_names: "QNetwork/EncodingNetwork/lambda_2/Bucketize"
          }
        }
        node_def {
          name: "QNetwork/EncodingNetwork/lambda_2/Cast"
          op: "Cast"
          input: "QNetwork/EncodingNetwork/lambda_2/Bucketize:output:0"
          attr {
            key: "DstT"
            value {
              type: DT_FLOAT
            }
          }
          attr {
            key: "SrcT"
            value {
              type: DT_INT32
            }
          }
          attr {
            key: "_output_shapes"
            value {
              list {
                shape {
                  dim {
                    size: 1
                  }
                  dim {
                    size: 1
                  }
                }
              }
            }
          }
          experimental_debug_info {
            original_node_names: "QNetwork/EncodingNetwork/lambda_2/Cast"
          }
        }
        node_def {
          name: "QNetwork/EncodingNetwork/lambda_2/truediv/y"
          op: "Const"
          attr {
            key: "_output_shapes"
            value {
              list {
                shape {
                }
              }
            }
          }
          attr {
            key: "dtype"
            value {
              type: DT_FLOAT
            }
          }
          attr {
            key: "value"
            value {
              tensor {
                dtype: DT_FLOAT
                tensor_shape {
                }
                float_val: 999
              }
            }
          }
          experimental_debug_info {
            original_node_names: "QNetwork/EncodingNetwork/lambda_2/truediv/y"
          }
        }
        node_def {
          name: "QNetwork/EncodingNetwork/lambda_2/truediv"
          op: "RealDiv"
          input: "QNetwork/EncodingNetwork/lambda_2/Cast:y:0"
          input: "QNetwork/EncodingNetwork/lambda_2/truediv/y:output:0"
          attr {
            key: "T"
            value {
              type: DT_FLOAT
            }
          }
          attr {
            key: "_output_shapes"
            value {
              list {
                shape {
                  dim {
                    size: 1
                  }
                  dim {
                    size: 1
                  }
                }
              }
            }
          }
          experimental_debug_info {
            original_node_names: "QNetwork/EncodingNetwork/lambda_2/truediv"
          }
        }
        node_def {
          name: "QNetwork/EncodingNetwork/lambda_2/Sqrt"
          op: "Sqrt"
          input: "QNetwork/EncodingNetwork/lambda_2/truediv:z:0"
          attr {
            key: "T"
            value {
              type: DT_FLOAT
            }
          }
          attr {
            key: "_output_shapes"
            value {
              list {
                shape {
                  dim {
                    size: 1
                  }
                  dim {
                    size: 1
                  }
                }
              }
            }
          }
          experimental_debug_info {
            original_node_names: "QNetwork/EncodingNetwork/lambda_2/Sqrt"
          }
        }
        node_def {
          name: "QNetwork/EncodingNetwork/lambda_2/mul"
          op: "Mul"
          input: "QNetwork/EncodingNetwork/lambda_2/truediv:z:0"
          input: "QNetwork/EncodingNetwork/lambda_2/truediv:z:0"
          attr {
            key: "T"
            value {
              type: DT_FLOAT
            }
          }
          attr {
            key: "_output_shapes"
            value {
              list {
                shape {
                  dim {
                    size: 1
                  }
                  dim {
                    size: 1
                  }
                }
              }
            }
          }
          experimental_debug_info {
            original_node_names: "QNetwork/EncodingNetwork/lambda_2/mul"
          }
        }
        node_def {
          name: "QNetwork/EncodingNetwork/lambda_2/concat/axis"
          op: "Const"
          attr {
            key: "_output_shapes"
            value {
              list {
                shape {
                }
              }
            }
          }
          attr {
            key: "dtype"
            value {
              type: DT_INT32
            }
          }
          attr {
            key: "value"
            value {
              tensor {
                dtype: DT_INT32
                tensor_shape {
                }
                int_val: -1
              }
            }
          }
          experimental_debug_info {
            original_node_names: "QNetwork/EncodingNetwork/lambda_2/concat/axis"
          }
        }
        node_def {
          name: "QNetwork/EncodingNetwork/lambda_2/concat"
          op: "ConcatV2"
          input: "QNetwork/EncodingNetwork/lambda_2/truediv:z:0"
          input: "QNetwork/EncodingNetwork/lambda_2/Sqrt:y:0"
          input: "QNetwork/EncodingNetwork/lambda_2/mul:z:0"
          input: "QNetwork/EncodingNetwork/lambda_2/concat/axis:output:0"
          attr {
            key: "N"
            value {
              i: 3
            }
          }
          attr {
            key: "T"
            value {
              type: DT_FLOAT
            }
          }
          attr {
            key: "_output_shapes"
            value {
              list {
                shape {
                  dim {
                    size: 1
                  }
                  dim {
                    size: 3
                  }
                }
              }
            }
          }
          experimental_debug_info {
            original_node_names: "QNetwork/EncodingNetwork/lambda_2/concat"
          }
        }
        node_def {
          name: "QNetwork/EncodingNetwork/lambda_3/expand_dims/ExpandDims/dim"
          op: "Const"
          attr {
            key: "_output_shapes"
            value {
              list {
                shape {
                }
              }
            }
          }
          attr {
            key: "dtype"
            value {
              type: DT_INT32
            }
          }
          attr {
            key: "value"
            value {
              tensor {
                dtype: DT_INT32
                tensor_shape {
                }
                int_val: -1
              }
            }
          }
          experimental_debug_info {
            original_node_names: "QNetwork/EncodingNetwork/lambda_3/expand_dims/ExpandDims/dim"
          }
        }
        node_def {
          name: "QNetwork/EncodingNetwork/lambda_3/expand_dims/ExpandDims"
          op: "ExpandDims"
          input: "time_step_6"
          input: "QNetwork/EncodingNetwork/lambda_3/expand_dims/ExpandDims/dim:output:0"
          attr {
            key: "T"
            value {
              type: DT_INT64
            }
          }
          attr {
            key: "_output_shapes"
            value {
              list {
                shape {
                  dim {
                    size: 1
                  }
                  dim {
                    size: 1
                  }
                }
              }
            }
          }
          experimental_debug_info {
            original_node_names: "QNetwork/EncodingNetwork/lambda_3/expand_dims/ExpandDims"
          }
        }
        node_def {
          name: "QNetwork/EncodingNetwork/lambda_3/Bucketize"
          op: "Bucketize"
          input: "QNetwork/EncodingNetwork/lambda_3/expand_dims/ExpandDims:output:0"
          attr {
            key: "T"
            value {
              type: DT_INT64
            }
          }
          attr {
            key: "_output_shapes"
            value {
              list {
                shape {
                  dim {
                    size: 1
                  }
                  dim {
                    size: 1
                  }
                }
              }
            }
          }
          attr {
            key: "boundaries"
            value {
              list {
                f: 1
                f: 1
                f: 1
                f: 1
                f: 1
                f: 1
                f: 1
                f: 1
                f: 1
                f: 1
                f: 1
                f: 1
                f: 1
                f: 1
                f: 1
                f: 1
                f: 1
                f: 1
                f: 1
                f: 1
                f: 1
                f: 1
                f: 1
                f: 1
                f: 1
                f: 1
                f: 1
                f: 1
                f: 1
                f: 1
                f: 1
                f: 1
                f: 1
                f: 1
                f: 1
                f: 1
                f: 1
                f: 1
                f: 1
                f: 1
                f: 1
                f: 1
                f: 1
                f: 1
                f: 1
                f: 1
                f: 1
                f: 1
                f: 1
                f: 1
                f: 1
                f: 1
                f: 1
                f: 1
                f: 1
                f: 1
                f: 1
                f: 1
                f: 1
                f: 1
                f: 1
                f: 1
                f: 1
                f: 1
                f: 1
                f: 1
                f: 1
                f: 1
                f: 1
                f: 1
                f: 1
                f: 1
                f: 1
                f: 1
                f: 1
                f: 1
                f: 1
                f: 1
                f: 1
                f: 1
                f: 1
                f: 1
                f: 1
                f: 1
                f: 1
                f: 1
                f: 1
                f: 1
                f: 1
                f: 1
                f: 1
                f: 1
                f: 1
                f: 1
                f: 1
                f: 1
                f: 1
                f: 1
                f: 1
                f: 1
                f: 1
                f: 1
                f: 1
                f: 1
                f: 1
                f: 1
                f: 1
                f: 1
                f: 1
                f: 1
                f: 1
                f: 1
                f: 1
                f: 1
                f: 1
                f: 1
                f: 1
                f: 1
                f: 1
                f: 1
                f: 1
                f: 1
                f: 1
                f: 1
                f: 1
                f: 1
                f: 1
                f: 1
                f: 1
                f: 1
                f: 1
                f: 1
                f: 1
                f: 1
                f: 1
                f: 1
                f: 1
                f: 1
                f: 1
                f: 1
                f: 1
                f: 1
                f: 1
                f: 1
                f: 1
                f: 1
                f: 1
                f: 1
                f: 1
                f: 1
                f: 1
                f: 1
                f: 1
                f: 1
                f: 1
                f: 1
                f: 1
                f: 1
                f: 1
                f: 1
                f: 1
                f: 1
                f: 1
                f: 1
                f: 1
                f: 1
                f: 1
                f: 1
                f: 1
                f: 1
                f: 1
                f: 1
                f: 1
                f: 1
                f: 1
                f: 1
                f: 1
                f: 1
                f: 1
                f: 1
                f: 1
                f: 1
                f: 1
                f: 1
                f: 1
                f: 1
                f: 1
                f: 1
                f: 1
                f: 1
                f: 1
                f: 1
                f: 1
                f: 1
                f: 1
                f: 1
                f: 1
                f: 1
                f: 1
                f: 1
                f: 1
                f: 1
                f: 1
                f: 1
                f: 1
                f: 1
                f: 1
                f: 1
                f: 1
                f: 1
                f: 1
                f: 1
                f: 1
                f: 1
                f: 1
                f: 1
                f: 1
                f: 1
                f: 1
                f: 1
                f: 1
                f: 1
                f: 1
                f: 1
                f: 1
                f: 1
                f: 1
                f: 1
                f: 1
                f: 1
                f: 1
                f: 1
                f: 1
                f: 1
                f: 1
                f: 1
                f: 1
                f: 1
                f: 1
                f: 1
                f: 1
                f: 1
                f: 1
                f: 1
                f: 1
                f: 1
                f: 1
                f: 1
                f: 1
                f: 1
                f: 1
                f: 1
                f: 1
                f: 1
                f: 1
                f: 1
                f: 1
                f: 1
                f: 1
                f: 1
                f: 1
                f: 1
                f: 1
                f: 1
                f: 1
                f: 1
                f: 1
                f: 1
                f: 1
                f: 1
                f: 1
                f: 1
                f: 1
                f: 1
                f: 1
                f: 1
                f: 1
                f: 1
                f: 1
                f: 1
                f: 1
                f: 1
                f: 1
                f: 1
                f: 1
                f: 1
                f: 1
                f: 1
                f: 1
                f: 1
                f: 1
                f: 1
                f: 1
                f: 1
                f: 1
                f: 1
                f: 1
                f: 1
                f: 1
                f: 1
                f: 1
                f: 1
                f: 1
                f: 1
                f: 1
                f: 1
                f: 1
                f: 1
                f: 1
                f: 1
                f: 1
                f: 1
                f: 1
                f: 1
                f: 1
                f: 1
                f: 1
                f: 1
                f: 1
                f: 1
                f: 1
                f: 1
                f: 1
                f: 1
                f: 1
                f: 1
                f: 1
                f: 1
                f: 1
                f: 1
                f: 1
                f: 1
                f: 1
                f: 1
                f: 1
                f: 1
                f: 1
                f: 1
                f: 1
                f: 1
                f: 1
                f: 1
                f: 1
                f: 1
                f: 1
                f: 1
                f: 1
                f: 1
                f: 1
                f: 1
                f: 1
                f: 1
                f: 1
                f: 1
                f: 1
                f: 1
                f: 1
                f: 1
                f: 1
                f: 1
                f: 1
                f: 1
                f: 1
                f: 1
                f: 1
                f: 1
                f: 1
                f: 1
                f: 1
                f: 1
                f: 1
                f: 1
                f: 1
                f: 1
                f: 1
                f: 1
                f: 1
                f: 1
                f: 1
                f: 1
                f: 1
                f: 1
                f: 1
                f: 1
                f: 1
                f: 1
                f: 1
                f: 1
                f: 1
                f: 1
                f: 1
                f: 1
                f: 1
                f: 1
                f: 1
                f: 1
                f: 1
                f: 1
                f: 1
                f: 1
                f: 1
                f: 1
                f: 1
                f: 1
                f: 1
                f: 1
                f: 1
                f: 1
                f: 1
                f: 1
                f: 1
                f: 1
                f: 1
                f: 1
                f: 1
                f: 1
                f: 1
                f: 1
                f: 1
                f: 1
                f: 1
                f: 1
                f: 1
                f: 1
                f: 1
                f: 1
                f: 1
                f: 1
                f: 1
                f: 1
                f: 1
                f: 1
                f: 1
                f: 1
                f: 1
                f: 1
                f: 1
                f: 1
                f: 1
                f: 1
                f: 1
                f: 1
                f: 1
                f: 1
                f: 1
                f: 1
                f: 3
                f: 3
                f: 3
                f: 3
                f: 3
                f: 3
                f: 3
                f: 3
                f: 3
                f: 3
                f: 3
                f: 3
                f: 3
                f: 3
                f: 3
                f: 3
                f: 3
                f: 3
                f: 3
                f: 3
                f: 3
                f: 3
                f: 3
                f: 3
                f: 3
                f: 3
                f: 3
                f: 3
                f: 3
                f: 3
                f: 3
                f: 3
                f: 3
                f: 3
                f: 3
                f: 3
                f: 3
                f: 3
                f: 3
                f: 3
                f: 3
                f: 3
                f: 3
                f: 3
                f: 3
                f: 3
                f: 3
                f: 3
                f: 3
                f: 3
                f: 3
                f: 3
                f: 3
                f: 3
                f: 3
                f: 3
                f: 3
                f: 3
                f: 3
                f: 3
                f: 3
                f: 3
                f: 3
                f: 3
                f: 3
                f: 3
                f: 3
                f: 3
                f: 3
                f: 3
                f: 3
                f: 3
                f: 3
                f: 3
                f: 3
                f: 3
                f: 3
                f: 4
                f: 4
                f: 4
                f: 4
                f: 4
                f: 4
                f: 4
                f: 4
                f: 4
                f: 4
                f: 4
                f: 4
                f: 4
                f: 4
                f: 4
                f: 4
                f: 4
                f: 4
                f: 4
                f: 4
                f: 4
                f: 4
                f: 4
                f: 4
                f: 4
                f: 4
                f: 4
                f: 4
                f: 4
                f: 4
                f: 4
                f: 4
                f: 4
                f: 4
                f: 4
                f: 4
                f: 4
                f: 4
                f: 4
                f: 4
                f: 4
                f: 4
                f: 4
                f: 4
                f: 4
                f: 4
                f: 4
                f: 4
                f: 4
                f: 4
                f: 4
                f: 4
                f: 4
                f: 4
                f: 4
                f: 4
                f: 4
                f: 4
                f: 4
                f: 4
                f: 4
                f: 4
                f: 4
                f: 4
                f: 4
                f: 4
                f: 4
                f: 4
                f: 4
                f: 4
                f: 4
                f: 4
                f: 4
                f: 4
                f: 4
                f: 4
                f: 4
                f: 4
                f: 4
                f: 4
                f: 4
                f: 4
                f: 4
                f: 4
                f: 4
                f: 4
                f: 4
                f: 4
                f: 4
                f: 4
                f: 4
                f: 4
                f: 4
                f: 4
                f: 4
                f: 4
                f: 4
                f: 4
                f: 5
                f: 5
                f: 5
                f: 5
                f: 5
                f: 5
                f: 5
                f: 5
                f: 5
                f: 5
                f: 5
                f: 5
                f: 5
                f: 5
                f: 5
                f: 5
                f: 5
                f: 5
                f: 5
                f: 5
                f: 5
                f: 5
                f: 5
                f: 5
                f: 5
                f: 6
                f: 6
                f: 6
                f: 6
                f: 6
                f: 6
                f: 6
                f: 6
                f: 6
                f: 6
                f: 6
                f: 6
                f: 6
                f: 6
                f: 6
                f: 6
                f: 6
                f: 6
                f: 6
                f: 6
                f: 6
                f: 6
                f: 6
                f: 7
                f: 7
                f: 7
                f: 7
                f: 7
                f: 7
                f: 7
                f: 7
                f: 7
                f: 7
                f: 7
                f: 7
                f: 7
                f: 7
                f: 7
                f: 7
                f: 7
                f: 7
                f: 7
                f: 7
                f: 7
                f: 7
                f: 7
                f: 7
                f: 7
                f: 7
                f: 7
                f: 7
                f: 7
                f: 7
                f: 7
                f: 8
                f: 8
                f: 8
                f: 8
                f: 8
                f: 8
                f: 8
                f: 8
                f: 8
                f: 8
                f: 8
                f: 8
                f: 8
                f: 8
                f: 8
                f: 8
                f: 8
                f: 8
                f: 8
                f: 8
                f: 9
                f: 9
                f: 9
                f: 9
                f: 9
                f: 9
                f: 9
                f: 9
                f: 9
                f: 9
                f: 9
                f: 9
                f: 9
                f: 9
                f: 9
                f: 9
                f: 9
                f: 10
                f: 10
                f: 10
                f: 10
                f: 10
                f: 10
                f: 10
                f: 10
                f: 10
                f: 10
                f: 10
                f: 10
                f: 10
                f: 10
                f: 10
                f: 11
                f: 11
                f: 11
                f: 11
                f: 11
                f: 11
                f: 11
                f: 11
                f: 11
                f: 11
                f: 11
                f: 11
                f: 11
                f: 11
                f: 12
                f: 12
                f: 12
                f: 12
                f: 12
                f: 12
                f: 12
                f: 12
                f: 12
                f: 12
                f: 12
                f: 12
                f: 13
                f: 13
                f: 13
                f: 13
                f: 13
                f: 13
                f: 13
                f: 13
                f: 13
                f: 13
                f: 13
                f: 13
                f: 13
                f: 13
                f: 13
                f: 13
                f: 13
                f: 13
                f: 14
                f: 14
                f: 14
                f: 14
                f: 14
                f: 14
                f: 14
                f: 14
                f: 15
                f: 15
                f: 15
                f: 15
                f: 15
                f: 15
                f: 15
                f: 15
                f: 15
                f: 16
                f: 16
                f: 16
                f: 16
                f: 16
                f: 16
                f: 16
                f: 16
                f: 16
                f: 16
                f: 17
                f: 17
                f: 17
                f: 17
                f: 17
                f: 17
                f: 17
                f: 18
                f: 18
                f: 18
                f: 18
                f: 18
                f: 18
                f: 18
                f: 18
                f: 18
                f: 18
                f: 18
                f: 19
                f: 19
                f: 19
                f: 19
                f: 19
                f: 19
                f: 19
                f: 20
                f: 20
                f: 20
                f: 20
                f: 20
                f: 21
                f: 21
                f: 21
                f: 21
                f: 21
                f: 21
                f: 22
                f: 22
                f: 22
                f: 22
                f: 22
                f: 22
                f: 22
                f: 23
                f: 23
                f: 23
                f: 24
                f: 24
                f: 24
                f: 24
                f: 24
                f: 24
                f: 25
                f: 25
                f: 25
                f: 25
                f: 25
                f: 26
                f: 26
                f: 26
                f: 26
                f: 27
                f: 27
                f: 27
                f: 27
                f: 27
                f: 28
                f: 28
                f: 28
                f: 29
                f: 29
                f: 29
                f: 29
                f: 30
                f: 30
                f: 30
                f: 31
                f: 31
                f: 31
                f: 32
                f: 32
                f: 32
                f: 33
                f: 33
                f: 33
                f: 34
                f: 34
                f: 34
                f: 34
                f: 35
                f: 35
                f: 35
                f: 36
                f: 36
                f: 36
                f: 37
                f: 37
                f: 37
                f: 38
                f: 38
                f: 38
                f: 38
                f: 39
                f: 39
                f: 40
                f: 40
                f: 41
                f: 41
                f: 42
                f: 43
                f: 43
                f: 44
                f: 45
                f: 45
                f: 46
                f: 47
                f: 47
                f: 48
                f: 49
                f: 49
                f: 50
                f: 50
                f: 52
                f: 52
                f: 53
                f: 54
                f: 55
                f: 55
                f: 57
                f: 58
                f: 59
                f: 60
                f: 62
                f: 64
                f: 65
                f: 66
                f: 68
                f: 70
                f: 70
                f: 70
                f: 70
                f: 70
                f: 71
                f: 73
                f: 75
                f: 76
                f: 78
                f: 81
                f: 84
                f: 86
                f: 90
                f: 94
                f: 98
                f: 101
                f: 106
                f: 111
                f: 117
                f: 123
                f: 130
                f: 138
                f: 146
                f: 157
                f: 163
                f: 176
                f: 187
                f: 198
                f: 214
                f: 227
                f: 252
                f: 280
                f: 327
                f: 395
                f: 506
                f: 671
                f: 1025
                f: 1971
              }
            }
          }
          experimental_debug_info {
            original_node_names: "QNetwork/EncodingNetwork/lambda_3/Bucketize"
          }
        }
        node_def {
          name: "QNetwork/EncodingNetwork/lambda_3/Cast"
          op: "Cast"
          input: "QNetwork/EncodingNetwork/lambda_3/Bucketize:output:0"
          attr {
            key: "DstT"
            value {
              type: DT_FLOAT
            }
          }
          attr {
            key: "SrcT"
            value {
              type: DT_INT32
            }
          }
          attr {
            key: "_output_shapes"
            value {
              list {
                shape {
                  dim {
                    size: 1
                  }
                  dim {
                    size: 1
                  }
                }
              }
            }
          }
          experimental_debug_info {
            original_node_names: "QNetwork/EncodingNetwork/lambda_3/Cast"
          }
        }
        node_def {
          name: "QNetwork/EncodingNetwork/lambda_3/truediv/y"
          op: "Const"
          attr {
            key: "_output_shapes"
            value {
              list {
                shape {
                }
              }
            }
          }
          attr {
            key: "dtype"
            value {
              type: DT_FLOAT
            }
          }
          attr {
            key: "value"
            value {
              tensor {
                dtype: DT_FLOAT
                tensor_shape {
                }
                float_val: 999
              }
            }
          }
          experimental_debug_info {
            original_node_names: "QNetwork/EncodingNetwork/lambda_3/truediv/y"
          }
        }
        node_def {
          name: "QNetwork/EncodingNetwork/lambda_3/truediv"
          op: "RealDiv"
          input: "QNetwork/EncodingNetwork/lambda_3/Cast:y:0"
          input: "QNetwork/EncodingNetwork/lambda_3/truediv/y:output:0"
          attr {
            key: "T"
            value {
              type: DT_FLOAT
            }
          }
          attr {
            key: "_output_shapes"
            value {
              list {
                shape {
                  dim {
                    size: 1
                  }
                  dim {
                    size: 1
                  }
                }
              }
            }
          }
          experimental_debug_info {
            original_node_names: "QNetwork/EncodingNetwork/lambda_3/truediv"
          }
        }
        node_def {
          name: "QNetwork/EncodingNetwork/lambda_3/Sqrt"
          op: "Sqrt"
          input: "QNetwork/EncodingNetwork/lambda_3/truediv:z:0"
          attr {
            key: "T"
            value {
              type: DT_FLOAT
            }
          }
          attr {
            key: "_output_shapes"
            value {
              list {
                shape {
                  dim {
                    size: 1
                  }
                  dim {
                    size: 1
                  }
                }
              }
            }
          }
          experimental_debug_info {
            original_node_names: "QNetwork/EncodingNetwork/lambda_3/Sqrt"
          }
        }
        node_def {
…
                key: "kwonlyargs"
                value {
                  list_value {
                  }
                }
              }
              values {
                key: "kwonlydefaults"
                value {
                  dict_value {
                  }
                }
              }
              values {
                key: "annotations"
                value {
                  dict_value {
                  }
                }
              }
            }
          }
          is_method: true
          input_signature {
            none_value {
            }
          }
        }
      }
    }
    nodes {
      function {
        function_spec {
          fullargspec {
            named_tuple_value {
              name: "FullArgSpec"
              values {
                key: "args"
                value {
                  list_value {
                    values {
                      string_value: "self"
                    }
                    values {
                      string_value: "inputs"
                    }
                    values {
                      string_value: "mask"
                    }
                    values {
                      string_value: "training"
                    }
                  }
                }
              }
              values {
                key: "varargs"
                value {
                  none_value {
                  }
                }
              }
              values {
                key: "varkw"
                value {
                  none_value {
                  }
                }
              }
              values {
                key: "defaults"
                value {
                  list_value {
                    values {
                      none_value {
                      }
                    }
                    values {
                      bool_value: false
                    }
                  }
                }
              }
              values {
                key: "kwonlyargs"
                value {
                  list_value {
                  }
                }
              }
              values {
                key: "kwonlydefaults"
                value {
                  dict_value {
                  }
                }
              }
              values {
                key: "annotations"
                value {
                  dict_value {
                  }
                }
              }
            }
          }
          is_method: true
          input_signature {
            none_value {
            }
          }
        }
      }
    }
    nodes {
      function {
        function_spec {
          fullargspec {
            named_tuple_value {
              name: "FullArgSpec"
              values {
                key: "args"
                value {
                  list_value {
                    values {
                      string_value: "self"
                    }
                    values {
                      string_value: "inputs"
                    }
                    values {
                      string_value: "mask"
                    }
                    values {
                      string_value: "training"
                    }
                  }
                }
              }
              values {
                key: "varargs"
                value {
                  none_value {
                  }
                }
              }
              values {
                key: "varkw"
                value {
                  none_value {
                  }
                }
              }
              values {
                key: "defaults"
                value {
                  list_value {
                    values {
                      none_value {
                      }
                    }
                    values {
                      bool_value: false
                    }
                  }
                }
              }
              values {
                key: "kwonlyargs"
                value {
                  list_value {
                  }
                }
              }
              values {
                key: "kwonlydefaults"
                value {
                  dict_value {
                  }
                }
              }
              values {
                key: "annotations"
                value {
                  dict_value {
                  }
                }
              }
            }
          }
          is_method: true
          input_signature {
            none_value {
            }
          }
        }
      }
    }
    nodes {
      function {
        function_spec {
          fullargspec {
            named_tuple_value {
              name: "FullArgSpec"
              values {
                key: "args"
                value {
                  list_value {
                    values {
                      string_value: "self"
                    }
                    values {
                      string_value: "inputs"
                    }
                    values {
                      string_value: "mask"
                    }
                    values {
                      string_value: "training"
                    }
                  }
                }
              }
              values {
                key: "varargs"
                value {
                  none_value {
                  }
                }
              }
              values {
                key: "varkw"
                value {
                  none_value {
                  }
                }
              }
              values {
                key: "defaults"
                value {
                  list_value {
                    values {
                      none_value {
                      }
                    }
                    values {
                      bool_value: false
                    }
                  }
                }
              }
              values {
                key: "kwonlyargs"
                value {
                  list_value {
                  }
                }
              }
              values {
                key: "kwonlydefaults"
                value {
                  dict_value {
                  }
                }
              }
              values {
                key: "annotations"
                value {
                  dict_value {
                  }
                }
              }
            }
          }
          is_method: true
          input_signature {
            none_value {
            }
          }
        }
      }
    }
    nodes {
      function {
        function_spec {
          fullargspec {
            named_tuple_value {
              name: "FullArgSpec"
              values {
                key: "args"
                value {
                  list_value {
                    values {
                      string_value: "self"
                    }
                    values {
                      string_value: "inputs"
                    }
                    values {
                      string_value: "mask"
                    }
                    values {
                      string_value: "training"
                    }
                  }
                }
              }
              values {
                key: "varargs"
                value {
                  none_value {
                  }
                }
              }
              values {
                key: "varkw"
                value {
                  none_value {
                  }
                }
              }
              values {
                key: "defaults"
                value {
                  list_value {
                    values {
                      none_value {
                      }
                    }
                    values {
                      bool_value: false
                    }
                  }
                }
              }
              values {
                key: "kwonlyargs"
                value {
                  list_value {
                  }
                }
              }
              values {
                key: "kwonlydefaults"
                value {
                  dict_value {
                  }
                }
              }
              values {
                key: "annotations"
                value {
                  dict_value {
                  }
                }
              }
            }
          }
          is_method: true
          input_signature {
            none_value {
            }
          }
        }
      }
    }
    nodes {
      function {
        function_spec {
          fullargspec {
            named_tuple_value {
              name: "FullArgSpec"
              values {
                key: "args"
                value {
                  list_value {
                    values {
                      string_value: "self"
                    }
                    values {
                      string_value: "inputs"
                    }
                    values {
                      string_value: "mask"
                    }
                    values {
                      string_value: "training"
                    }
                  }
                }
              }
              values {
                key: "varargs"
                value {
                  none_value {
                  }
                }
              }
              values {
                key: "varkw"
                value {
                  none_value {
                  }
                }
              }
              values {
                key: "defaults"
                value {
                  list_value {
                    values {
                      none_value {
                      }
                    }
                    values {
                      bool_value: false
                    }
                  }
                }
              }
              values {
                key: "kwonlyargs"
                value {
                  list_value {
                  }
                }
              }
              values {
                key: "kwonlydefaults"
                value {
                  dict_value {
                  }
                }
              }
              values {
                key: "annotations"
                value {
                  dict_value {
                  }
                }
              }
            }
          }
          is_method: true
          input_signature {
            none_value {
            }
          }
        }
      }
    }
    nodes {
      function {
        function_spec {
          fullargspec {
            named_tuple_value {
              name: "FullArgSpec"
              values {
                key: "args"
                value {
                  list_value {
                    values {
                      string_value: "self"
                    }
                    values {
                      string_value: "inputs"
                    }
                  }
                }
              }
              values {
                key: "varargs"
                value {
                  none_value {
                  }
                }
              }
              values {
                key: "varkw"
                value {
                  none_value {
                  }
                }
              }
              values {
                key: "defaults"
                value {
                  none_value {
                  }
                }
              }
              values {
                key: "kwonlyargs"
                value {
                  list_value {
                  }
                }
              }
              values {
                key: "kwonlydefaults"
                value {
                  none_value {
                  }
                }
              }
              values {
                key: "annotations"
                value {
                  dict_value {
                  }
                }
              }
            }
          }
          is_method: true
          input_signature {
            none_value {
            }
          }
        }
      }
    }
    nodes {
      function {
        function_spec {
          fullargspec {
            named_tuple_value {
              name: "FullArgSpec"
              values {
                key: "args"
                value {
                  list_value {
                    values {
                      string_value: "self"
                    }
                    values {
                      string_value: "inputs"
                    }
                  }
                }
              }
              values {
                key: "varargs"
                value {
                  none_value {
                  }
                }
              }
              values {
                key: "varkw"
                value {
                  none_value {
                  }
                }
              }
              values {
                key: "defaults"
                value {
                  none_value {
                  }
                }
              }
              values {
                key: "kwonlyargs"
                value {
                  list_value {
                  }
                }
              }
              values {
                key: "kwonlydefaults"
                value {
                  none_value {
                  }
                }
              }
              values {
                key: "annotations"
                value {
                  dict_value {
                  }
                }
              }
            }
          }
          is_method: true
          input_signature {
            none_value {
            }
          }
        }
      }
    }
    nodes {
      function {
        function_spec {
          fullargspec {
            named_tuple_value {
              name: "FullArgSpec"
              values {
                key: "args"
                value {
                  list_value {
                    values {
                      string_value: "self"
                    }
                    values {
                      string_value: "inputs"
                    }
                  }
                }
              }
              values {
                key: "varargs"
                value {
                  none_value {
                  }
                }
              }
              values {
                key: "varkw"
                value {
                  none_value {
                  }
                }
              }
              values {
                key: "defaults"
                value {
                  none_value {
                  }
                }
              }
              values {
                key: "kwonlyargs"
                value {
                  list_value {
                  }
                }
              }
              values {
                key: "kwonlydefaults"
                value {
                  none_value {
                  }
                }
              }
              values {
                key: "annotations"
                value {
                  dict_value {
                  }
                }
              }
            }
          }
          is_method: true
          input_signature {
            none_value {
            }
          }
        }
      }
    }
    nodes {
      function {
        function_spec {
          fullargspec {
            named_tuple_value {
              name: "FullArgSpec"
              values {
                key: "args"
                value {
                  list_value {
                    values {
                      string_value: "self"
                    }
                    values {
                      string_value: "inputs"
                    }
                  }
                }
              }
              values {
                key: "varargs"
                value {
                  none_value {
                  }
                }
              }
              values {
                key: "varkw"
                value {
                  none_value {
                  }
                }
              }
              values {
                key: "defaults"
                value {
                  none_value {
                  }
                }
              }
              values {
                key: "kwonlyargs"
                value {
                  list_value {
                  }
                }
              }
              values {
                key: "kwonlydefaults"
                value {
                  none_value {
                  }
                }
              }
              values {
                key: "annotations"
                value {
                  dict_value {
                  }
                }
              }
            }
          }
          is_method: true
          input_signature {
            none_value {
            }
          }
        }
      }
    }
    nodes {
      function {
        function_spec {
          fullargspec {
            named_tuple_value {
              name: "FullArgSpec"
              values {
                key: "args"
                value {
                  list_value {
                    values {
                      string_value: "self"
                    }
                    values {
                      string_value: "inputs"
                    }
                  }
                }
              }
              values {
                key: "varargs"
                value {
                  none_value {
                  }
                }
              }
              values {
                key: "varkw"
                value {
                  none_value {
                  }
                }
              }
              values {
                key: "defaults"
                value {
                  none_value {
                  }
                }
              }
              values {
                key: "kwonlyargs"
                value {
                  list_value {
                  }
                }
              }
              values {
                key: "kwonlydefaults"
                value {
                  none_value {
                  }
                }
              }
              values {
                key: "annotations"
                value {
                  dict_value {
                  }
                }
              }
            }
          }
          is_method: true
          input_signature {
            none_value {
            }
          }
        }
      }
    }
    nodes {
      function {
        function_spec {
          fullargspec {
            named_tuple_value {
              name: "FullArgSpec"
              values {
                key: "args"
                value {
                  list_value {
                    values {
                      string_value: "self"
                    }
                    values {
                      string_value: "inputs"
                    }
                  }
                }
              }
              values {
                key: "varargs"
                value {
                  none_value {
                  }
                }
              }
              values {
                key: "varkw"
                value {
                  none_value {
                  }
                }
              }
              values {
                key: "defaults"
                value {
                  none_value {
                  }
                }
              }
              values {
                key: "kwonlyargs"
                value {
                  list_value {
                  }
                }
              }
              values {
                key: "kwonlydefaults"
                value {
                  none_value {
                  }
                }
              }
              values {
                key: "annotations"
                value {
                  dict_value {
                  }
                }
              }
            }
          }
          is_method: true
          input_signature {
            none_value {
            }
          }
        }
      }
    }
    concrete_functions {
      key: "__inference_<lambda>_728"
      value {
        bound_inputs: 4
        canonicalized_input_signature {
          tuple_value {
            values {
              tuple_value {
              }
            }
            values {
              dict_value {
              }
            }
          }
        }
        output_signature {
          tensor_spec_value {
            shape {
            }
            dtype: DT_INT64
          }
        }
      }
    }
    concrete_functions {
      key: "__inference_function_722"
      value {
        canonicalized_input_signature {
          tuple_value {
            values {
              tuple_value {
              }
            }
            values {
              dict_value {
              }
            }
          }
        }
        output_signature {
          tuple_value {
          }
        }
      }
    }
    concrete_functions {
      key: "__inference_polymorphic_action_fn_4619080"
      value {
        bound_inputs: 10
        bound_inputs: 11
        bound_inputs: 12
        bound_inputs: 13
        bound_inputs: 14
        bound_inputs: 15
        canonicalized_input_signature {
          tuple_value {
            values {
              tuple_value {
                values {
                  named_tuple_value {
                    name: "TimeStep"
                    values {
                      key: "step_type"
                      value {
                        tensor_spec_value {
                          name: "time_step/step_type"
                          shape {
                            dim {
                              size: 1
                            }
                          }
                          dtype: DT_INT32
                        }
                      }
                    }
                    values {
                      key: "reward"
                      value {
                        tensor_spec_value {
                          name: "time_step/reward"
                          shape {
                            dim {
                              size: 1
                            }
                          }
                          dtype: DT_FLOAT
                        }
                      }
                    }
                    values {
                      key: "discount"
                      value {
                        tensor_spec_value {
                          name: "time_step/discount"
                          shape {
                            dim {
                              size: 1
                            }
                          }
                          dtype: DT_FLOAT
                        }
                      }
                    }
                    values {
                      key: "observation"
                      value {
                        dict_value {
                          fields {
                            key: "callee_basic_block_count"
                            value {
                              tensor_spec_value {
                                name: "time_step/observation/callee_basic_block_count"
                                shape {
                                  dim {
                                    size: 1
                                  }
                                }
                                dtype: DT_INT64
                              }
                            }
                          }
                          fields {
                            key: "callee_conditionally_executed_blocks"
                            value {
                              tensor_spec_value {
                                name: "time_step/observation/callee_conditionally_executed_blocks"
                                shape {
                                  dim {
                                    size: 1
                                  }
                                }
                                dtype: DT_INT64
                              }
                            }
                          }
                          fields {
                            key: "callee_users"
                            value {
                              tensor_spec_value {
                                name: "time_step/observation/callee_users"
                                shape {
                                  dim {
                                    size: 1
                                  }
                                }
                                dtype: DT_INT64
                              }
                            }
                          }
                          fields {
                            key: "caller_basic_block_count"
                            value {
                              tensor_spec_value {
                                name: "time_step/observation/caller_basic_block_count"
                                shape {
                                  dim {
                                    size: 1
                                  }
                                }
                                dtype: DT_INT64
                              }
                            }
                          }
                          fields {
                            key: "caller_conditionally_executed_blocks"
                            value {
                              tensor_spec_value {
                                name: "time_step/observation/caller_conditionally_executed_blocks"
                                shape {
                                  dim {
                                    size: 1
                                  }
                                }
                                dtype: DT_INT64
                              }
                            }
                          }
                          fields {
                            key: "caller_users"
                            value {
                              tensor_spec_value {
                                name: "time_step/observation/caller_users"
                                shape {
                                  dim {
                                    size: 1
                                  }
                                }
                                dtype: DT_INT64
                              }
                            }
                          }
                          fields {
                            key: "callsite_height"
                            value {
                              tensor_spec_value {
                                name: "time_step/observation/callsite_height"
                                shape {
                                  dim {
                                    size: 1
                                  }
                                }
                                dtype: DT_INT64
                              }
                            }
                          }
                          fields {
                            key: "cost_estimate"
                            value {
                              tensor_spec_value {
                                name: "time_step/observation/cost_estimate"
                                shape {
                                  dim {
                                    size: 1
                                  }
                                }
                                dtype: DT_INT64
                              }
                            }
                          }
                          fields {
                            key: "edge_count"
                            value {
                              tensor_spec_value {
                                name: "time_step/observation/edge_count"
                                shape {
                                  dim {
                                    size: 1
                                  }
                                }
                                dtype: DT_INT64
                              }
                            }
                          }
                          fields {
                            key: "inlining_default"
                            value {
                              tensor_spec_value {
                                name: "time_step/observation/inlining_default"
                                shape {
                                  dim {
                                    size: 1
                                  }
                                }
                                dtype: DT_INT64
                              }
                            }
                          }
                          fields {
                            key: "node_count"
                            value {
                              tensor_spec_value {
                                name: "time_step/observation/node_count"
                                shape {
                                  dim {
                                    size: 1
                                  }
                                }
                                dtype: DT_INT64
                              }
                            }
                          }
                          fields {
                            key: "nr_ctant_params"
                            value {
                              tensor_spec_value {
                                name: "time_step/observation/nr_ctant_params"
                                shape {
                                  dim {
                                    size: 1
                                  }
                                }
                                dtype: DT_INT64
                              }
                            }
                          }
                        }
                      }
                    }
                  }
                }
                values {
                  tuple_value {
                  }
                }
              }
            }
            values {
              dict_value {
              }
            }
          }
        }
        output_signature {
          named_tuple_value {
            name: "PolicyStep"
            values {
              key: "action"
              value {
                tensor_spec_value {
                  name: "action"
                  shape {
                    dim {
                      size: 1
                    }
                  }
                  dtype: DT_INT64
                }
              }
            }
            values {
              key: "state"
              value {
                tuple_value {
                }
              }
            }
            values {
              key: "info"
              value {
                tuple_value {
                }
              }
            }
          }
        }
      }
    }
    concrete_functions {
      key: "__inference_polymorphic_action_fn_946"
      value {
        bound_inputs: 10
        bound_inputs: 11
        bound_inputs: 12
        bound_inputs: 13
        bound_inputs: 14
        bound_inputs: 15
        canonicalized_input_signature {
          tuple_value {
            values {
              tuple_value {
                values {
                  named_tuple_value {
                    name: "TimeStep"
                    values {
                      key: "step_type"
                      value {
                        tensor_spec_value {
                          name: "step_type"
                          shape {
                            dim {
                              size: 1
                            }
                          }
                          dtype: DT_INT32
                        }
                      }
                    }
                    values {
                      key: "reward"
                      value {
                        tensor_spec_value {
                          name: "reward"
                          shape {
                            dim {
                              size: 1
                            }
                          }
                          dtype: DT_FLOAT
                        }
                      }
                    }
                    values {
                      key: "discount"
                      value {
                        tensor_spec_value {
                          name: "discount"
                          shape {
                            dim {
                              size: 1
                            }
                          }
                          dtype: DT_FLOAT
                        }
                      }
                    }
                    values {
                      key: "observation"
                      value {
                        dict_value {
                          fields {
                            key: "callee_basic_block_count"
                            value {
                              tensor_spec_value {
                                name: "callee_basic_block_count"
                                shape {
                                  dim {
                                    size: 1
                                  }
                                }
                                dtype: DT_INT64
                              }
                            }
                          }
                          fields {
                            key: "callee_conditionally_executed_blocks"
                            value {
                              tensor_spec_value {
                                name: "callee_conditionally_executed_blocks"
                                shape {
                                  dim {
                                    size: 1
                                  }
                                }
                                dtype: DT_INT64
                              }
                            }
                          }
                          fields {
                            key: "callee_users"
                            value {
                              tensor_spec_value {
                                name: "callee_users"
                                shape {
                                  dim {
                                    size: 1
                                  }
                                }
                                dtype: DT_INT64
                              }
                            }
                          }
                          fields {
                            key: "caller_basic_block_count"
                            value {
                              tensor_spec_value {
                                name: "caller_basic_block_count"
                                shape {
                                  dim {
                                    size: 1
                                  }
                                }
                                dtype: DT_INT64
                              }
                            }
                          }
                          fields {
                            key: "caller_conditionally_executed_blocks"
                            value {
                              tensor_spec_value {
                                name: "caller_conditionally_executed_blocks"
                                shape {
                                  dim {
                                    size: 1
                                  }
                                }
                                dtype: DT_INT64
                              }
                            }
                          }
                          fields {
                            key: "caller_users"
                            value {
                              tensor_spec_value {
                                name: "caller_users"
                                shape {
                                  dim {
                                    size: 1
                                  }
                                }
                                dtype: DT_INT64
                              }
                            }
                          }
                          fields {
                            key: "callsite_height"
                            value {
                              tensor_spec_value {
                                name: "callsite_height"
                                shape {
                                  dim {
                                    size: 1
                                  }
                                }
                                dtype: DT_INT64
                              }
                            }
                          }
                          fields {
                            key: "cost_estimate"
                            value {
                              tensor_spec_value {
                                name: "cost_estimate"
                                shape {
                                  dim {
                                    size: 1
                                  }
                                }
                                dtype: DT_INT64
                              }
                            }
                          }
                          fields {
                            key: "edge_count"
                            value {
                              tensor_spec_value {
                                name: "edge_count"
                                shape {
                                  dim {
                                    size: 1
                                  }
                                }
                                dtype: DT_INT64
                              }
                            }
                          }
                          fields {
                            key: "inlining_default"
                            value {
                              tensor_spec_value {
                                name: "inlining_default"
                                shape {
                                  dim {
                                    size: 1
                                  }
                                }
                                dtype: DT_INT64
                              }
                            }
                          }
                          fields {
                            key: "node_count"
                            value {
                              tensor_spec_value {
                                name: "node_count"
                                shape {
                                  dim {
                                    size: 1
                                  }
                                }
                                dtype: DT_INT64
                              }
                            }
                          }
                          fields {
                            key: "nr_ctant_params"
                            value {
                              tensor_spec_value {
                                name: "nr_ctant_params"
                                shape {
                                  dim {
                                    size: 1
                                  }
                                }
                                dtype: DT_INT64
                              }
                            }
                          }
                        }
                      }
                    }
                  }
                }
                values {
                  tuple_value {
                  }
                }
              }
            }
            values {
              dict_value {
              }
            }
          }
        }
        output_signature {
          named_tuple_value {
            name: "PolicyStep"
            values {
              key: "action"
              value {
                tensor_spec_value {
                  name: "action"
                  shape {
                    dim {
                      size: 1
                    }
                  }
                  dtype: DT_INT64
                }
              }
            }
            values {
              key: "state"
              value {
                tuple_value {
                }
              }
            }
            values {
              key: "info"
              value {
                tuple_value {
                }
              }
            }
          }
        }
      }
    }
    concrete_functions {
      key: "__inference_signature_wrapper_4619026"
      value {
        bound_inputs: 10
        bound_inputs: 11
        bound_inputs: 12
        bound_inputs: 13
        bound_inputs: 14
        bound_inputs: 15
        canonicalized_input_signature {
          tuple_value {
            values {
              tuple_value {
              }
            }
            values {
              dict_value {
                fields {
                  key: "callee_basic_block_count"
                  value {
                    tensor_spec_value {
                      name: "callee_basic_block_count"
                      shape {
                        dim {
                          size: 1
                        }
                      }
                      dtype: DT_INT64
                    }
                  }
                }
                fields {
                  key: "callee_conditionally_executed_blocks"
                  value {
                    tensor_spec_value {
                      name: "callee_conditionally_executed_blocks"
                      shape {
                        dim {
                          size: 1
                        }
                      }
                      dtype: DT_INT64
                    }
                  }
                }
                fields {
                  key: "callee_users"
                  value {
                    tensor_spec_value {
                      name: "callee_users"
                      shape {
                        dim {
                          size: 1
                        }
                      }
                      dtype: DT_INT64
                    }
                  }
                }
                fields {
                  key: "caller_basic_block_count"
                  value {
                    tensor_spec_value {
                      name: "caller_basic_block_count"
                      shape {
                        dim {
                          size: 1
                        }
                      }
                      dtype: DT_INT64
                    }
                  }
                }
                fields {
                  key: "caller_conditionally_executed_blocks"
                  value {
                    tensor_spec_value {
                      name: "caller_conditionally_executed_blocks"
                      shape {
                        dim {
                          size: 1
                        }
                      }
                      dtype: DT_INT64
                    }
                  }
                }
                fields {
                  key: "caller_users"
                  value {
                    tensor_spec_value {
                      name: "caller_users"
                      shape {
                        dim {
                          size: 1
                        }
                      }
                      dtype: DT_INT64
                    }
                  }
                }
                fields {
                  key: "callsite_height"
                  value {
                    tensor_spec_value {
                      name: "callsite_height"
                      shape {
                        dim {
                          size: 1
                        }
                      }
                      dtype: DT_INT64
                    }
                  }
                }
                fields {
                  key: "cost_estimate"
                  value {
                    tensor_spec_value {
                      name: "cost_estimate"
                      shape {
                        dim {
                          size: 1
                        }
                      }
                      dtype: DT_INT64
                    }
                  }
                }
                fields {
                  key: "discount"
                  value {
                    tensor_spec_value {
                      name: "discount"
                      shape {
                        dim {
                          size: 1
                        }
                      }
                      dtype: DT_FLOAT
                    }
                  }
                }
                fields {
                  key: "edge_count"
                  value {
                    tensor_spec_value {
                      name: "edge_count"
                      shape {
                        dim {
                          size: 1
                        }
                      }
                      dtype: DT_INT64
                    }
                  }
                }
                fields {
                  key: "inlining_default"
                  value {
                    tensor_spec_value {
                      name: "inlining_default"
                      shape {
                        dim {
                          size: 1
                        }
                      }
                      dtype: DT_INT64
                    }
                  }
                }
                fields {
                  key: "node_count"
                  value {
                    tensor_spec_value {
                      name: "node_count"
                      shape {
                        dim {
                          size: 1
                        }
                      }
                      dtype: DT_INT64
                    }
                  }
                }
                fields {
                  key: "nr_ctant_params"
                  value {
                    tensor_spec_value {
                      name: "nr_ctant_params"
                      shape {
                        dim {
                          size: 1
                        }
                      }
                      dtype: DT_INT64
                    }
                  }
                }
                fields {
                  key: "reward"
                  value {
                    tensor_spec_value {
                      name: "reward"
                      shape {
                        dim {
                          size: 1
                        }
                      }
                      dtype: DT_FLOAT
                    }
                  }
                }
                fields {
                  key: "step_type"
                  value {
                    tensor_spec_value {
                      name: "step_type"
                      shape {
                        dim {
                          size: 1
                        }
                      }
                      dtype: DT_INT32
                    }
                  }
                }
              }
            }
          }
        }
        output_signature {
          dict_value {
            fields {
              key: "inlining_decision"
              value {
                tensor_spec_value {
                  name: "inlining_decision"
                  shape {
                    dim {
                      size: 1
                    }
                  }
                  dtype: DT_INT64
                }
              }
            }
          }
        }
      }
    }
    concrete_functions {
      key: "__inference_signature_wrapper_4619033"
      value {
        canonicalized_input_signature {
          tuple_value {
            values {
              tuple_value {
              }
            }
            values {
              dict_value {
              }
            }
          }
        }
        output_signature {
          dict_value {
          }
        }
      }
    }
    concrete_functions {
      key: "__inference_signature_wrapper_4619048"
      value {
        bound_inputs: 4
        canonicalized_input_signature {
          tuple_value {
            values {
              tuple_value {
              }
            }
            values {
              dict_value {
              }
            }
          }
        }
        output_signature {
          dict_value {
            fields {
              key: "int64"
              value {
                tensor_spec_value {
                  name: "int64"
                  shape {
                  }
                  dtype: DT_INT64
                }
              }
            }
          }
        }
      }
    }
  }
}

